logs/best_epoch_2.ckpt (torch, 676783 bytes, 8 tensors)

conv1.weight f4 [10, 3, 3, 3]
0	0xbcea2b8e	-0.028585222
1	0x3dd78cf6	0.10524933
2	0x3de86ed5	0.113492645
3	0x3d2a272a	0.041541256
4	0xbe1c6ff8	-0.15277088
5	0xbd37bb96	-0.04485663
6	0xbd45805a	-0.04821811
7	0xbe08c4a7	-0.13356267
8	0x3bfd0d41	0.0077225273
9	0xbcd08578	-0.025454268
10	0xbda69d8d	-0.08135519
11	0xbe03b68f	-0.1286261
12	0xbe431498	-0.19050825
13	0x3d888da8	0.06667644
14	0x3d154196	0.0364395
15	0xbe33381e	-0.17501876
16	0xbc72e634	-0.0148253925
17	0xbc8eaf0b	-0.017417451
18	0xbdb9a416	-0.090645
19	0xbdd35e78	-0.10320753
20	0xbc1ec227	-0.009689844
21	0x3cf3757b	0.029719105
22	0xbdd4436f	-0.103644244
23	0x3e30e971	0.17276551
24	0x3dda2e18	0.10653323
25	0x3e28d705	0.16488273
26	0xbd26dac9	-0.040735994
27	0x3d9f5bf3	0.0778121
28	0x3d2bdc13	0.041957926
29	0x3c4c693a	0.01247626
30	0xbe78f709	-0.24312986
31	0xbe78cb93	-0.24296407
32	0xbcbdcc8b	-0.023168823
33	0xbe9209db	-0.28523144
34	0xbe1951f9	-0.14972676
35	0xbe8597a3	-0.26092252
36	0x3db0c352	0.086310044
37	0xbbae9fdc	-0.0053291153
38	0xbe53d9c7	-0.20688544
39	0x3d40f82f	0.047111686
40	0xbdf9d0d8	-0.12198037
41	0x3d8cd492	0.06876482
42	0x3de11186	0.109896705
43	0xbe221ad6	-0.1583055
44	0x3bd4fafb	0.0064996458
45	0x3e52e4dd	0.20595117
46	0x3e975193	0.29554424
47	0x3e81a543	0.25321397
48	0xbc0c1304	-0.008549456
49	0x3e4c5d11	0.19957377
50	0x3e606b45	0.2191592
51	0x3e34acb0	0.17644
52	0x3e3a9f94	0.18224937
53	0x3e196667	0.1498047
54	0x3dec5115	0.11538903
55	0x3ec43857	0.38324234
56	0x3dd8fa07	0.10594564
57	0xbd23634c	-0.03988962
58	0xbe08ea0c	-0.13370532
59	0x3e5edc85	0.21763809
60	0xbe6fdf73	-0.23425083
61	0xbeb3f4a5	-0.35147586
62	0xbd88dcb8	-0.06682724
63	0x3e5b3307	0.21406184
64	0x3d728f88	0.059218913
65	0x3e36575c	0.17806762
66	0xbe11a432	-0.14222792
67	0x3d0119d3	0.03151877
68	0x3dd930f0	0.10605037
69	0xbeb2778c	-0.34856832
70	0xbda81d1f	-0.082086794
71	0xbdc85157	-0.09781139
72	0x3ee553a6	0.4479038
73	0x3f19e7ea	0.601195
74	0x3ee63f44	0.44970143
75	0x3efd4833	0.49469146
76	0x3eb533e4	0.35391152
77	0x3f03540f	0.5130014
78	0x3d8d3e8d	0.06896696
79	0x3e765000	0.24053955
80	0x3dbdb3ce	0.09262811
81	0x3efee914	0.497872
82	0x3ee09d46	0.4386999
83	0x3ed3ec31	0.41391137
84	0x3ec4715e	0.38367742
85	0x3f0e7cfb	0.55659455
86	0x3edbe654	0.42949164
87	0x3d884900	0.06654549
88	0xbd07a7ec	-0.033119127
89	0x3ea800b6	0.32813042
90	0x3d8fc99a	0.07020874
91	0x3ccee014	0.025253333
92	0xbd5c548e	-0.053791575
93	0xbdca8eea	-0.0989054
94	0xbce586cb	-0.028018376
95	0xbd25bc08	-0.040462524
96	0xbe94f6c3	-0.29094514
97	0xbeeda9b1	-0.46418527
98	0xbe83b266	-0.25722045
99	0xbe2cf163	-0.16888957
100	0xbd9a1cf7	-0.07525056
101	0x3ac42359	0.0014964148
102	0xbdd9bdcf	-0.10631906
103	0xbe16f8ca	-0.14743343
104	0xbe858ea3	-0.26085386
105	0xbe557865	-0.20846708
106	0xbddcb854	-0.10777345
107	0xbe8a55c6	-0.27018565
108	0x3ee04ce6	0.4380867
109	0x3eebf66d	0.46086445
110	0x3e05c3a5	0.13062914
111	0x3f38e6ce	0.7222718
112	0x3ecbb009	0.39782742
113	0x3d0d874d	0.03455286
114	0x3ed95d52	0.4245401
115	0x3ec308a2	0.38092524
116	0xbe1ed730	-0.15511775
117	0xbe9beb48	-0.30452943
118	0xbeea6267	-0.457782
119	0xbf15984b	-0.58435506
120	0xbc4c39dd	-0.012464968
121	0xbe4acdeb	-0.19805114
122	0xbedbd061	-0.42932418
123	0xbe208e4e	-0.15679285
124	0xbecbf6d7	-0.3983676
125	0xbee437f0	-0.44573927
126	0x3e96878a	0.29400283
127	0xbea7adaa	-0.32749683
128	0xbe982999	-0.29719236
129	0x3eb3f93a	0.35151082
130	0xbdf16c77	-0.11788266
131	0xbf118d71	-0.5685645
132	0x3db4fc82	0.088372245
133	0x3d9560a8	0.07293826
134	0xbee0bc98	-0.43893886
135	0x3ebcabab	0.36849722
136	0x3edaf07a	0.42761594
137	0x3f01e473	0.5073921
138	0xbeef4ca7	-0.4673817
139	0xbe632ad5	-0.22184308
140	0xbecc473b	-0.39898095
141	0xbeeb3379	-0.45937708
142	0xbee4d040	-0.44690132
143	0xbef2c848	-0.47418427
144	0x3e87d545	0.265299
145	0x3efd8093	0.49512157
146	0x3ec3d92b	0.38251624
147	0xbdd26b42	-0.10274364
148	0xbe615a70	-0.22007155
149	0xbe6de519	-0.23231925
150	0xbec2f2dd	-0.38075915
151	0xbf4728d1	-0.77796656
152	0xbf18f5ac	-0.59749866
153	0x3f24e658	0.64413977
154	0x3f469563	0.77571696
155	0x3ec3e100	0.382576
156	0x3e0129ab	0.12613551
157	0xbe52df8f	-0.20593093
158	0xbccaaf30	-0.024741739
159	0xbdf2a811	-0.118484624
160	0xbeabc5c7	-0.3354933
161	0xbed13be2	-0.40866
162	0xbe3c7603	-0.18404393
163	0x3e3d9aa6	0.18516025
164	0xbda5c0fe	-0.08093451
165	0xbcb13095	-0.021629611
166	0xbdd7688e	-0.10517989
167	0x3e45c452	0.19313172
168	0xbeb6a80c	-0.35675085
169	0xbdf3434f	-0.118780725
170	0x3ea6e21b	0.3259438
171	0x3d8ee066	0.06976394
172	0x3eaac118	0.33350444
173	0x3e3aff11	0.18261363
174	0xbe807c6e	-0.25094932
175	0x3e1c34b9	0.15254487
176	0x3ecce4ea	0.40018398
177	0xbda8c192	-0.082400456
178	0x3e1f61ce	0.15564653
179	0x3eaf1b32	0.34200436
180	0xbe3d522a	-0.18488374
181	0xbe080275	-0.13282187
182	0xbe83dc96	-0.2575423
183	0xbdb808e2	-0.08986069
184	0xbe058f59	-0.13042964
185	0xbde1eacc	-0.11031112
186	0xbed1ce56	-0.40977734
187	0xbdb70723	-0.08936908
188	0x3ddc0141	0.10742427
189	0x3d8ddb80	0.06926632
190	0xbe340293	-0.17579107
191	0xbe2cb78d	-0.16866894
192	0x3d8f6a13	0.07002654
193	0xbe30a268	-0.17249453
194	0xbe8ae44b	-0.271273
195	0xbd121cf0	-0.03567213
196	0xbcad7095	-0.021171847
197	0xbd8edc96	-0.06975667
198	0xbd23dd61	-0.040006045
199	0x3d2ff703	0.042960178
200	0xbe19561c	-0.14974254
201	0x3d9413e1	0.07230354
202	0xbe1cbf1a	-0.15307274
203	0x3e063d55	0.13109334
204	0xbe5aed0f	-0.21379493
205	0x3d91d255	0.07120196
206	0xbe409f54	-0.18810779
207	0xbde77606	-0.11301808
208	0x3d3dc3af	0.046329197
209	0x3c738bfc	0.014864918
210	0x3d6fe4ad	0.05856769
211	0x3e24c546	0.16090879
212	0x3e6d0df5	0.23149855
213	0x3df8397d	0.1212034
214	0x3e3d794b	0.18503301
215	0x3e5b3704	0.21407706
216	0x3e2875e3	0.1645122
217	0x3eec3156	0.4613139
218	0x3ec69b2b	0.3879026
219	0x3e9152ff	0.28383633
220	0x3e453baf	0.19261049
221	0x3f041290	0.51590824
222	0x3cbaa19b	0.022782138
223	0x3e2011b5	0.15631755
224	0x3ed112e9	0.4083474
225	0x3d337d2a	0.043820538
226	0x3d36c12d	0.04461782
227	0x3ed6dbb5	0.41964498
228	0x3e5747e6	0.21023521
229	0x3e850d71	0.25986817
230	0x3ea4ea0a	0.32209808
231	0xbdfa882f	-0.12233006
232	0x3e1939c4	0.14963442
233	0x3f02234e	0.5083512
234	0xbf32bc49	-0.6981855
235	0xbf355095	-0.70826083
236	0xbe9a0d73	-0.30088386
237	0xbf347a9c	-0.7049959
238	0xbf04d31f	-0.51884645
239	0xbf01fb95	-0.5077451
240	0xbf1c5d0e	-0.6107949
241	0xbf408f98	-0.75219107
242	0xbefd1116	-0.49427098
243	0xbe50a072	-0.20373705
244	0x3d8bb581	0.068217285
245	0x3eb288af	0.34869906
246	0xbe94875d	-0.29009524
247	0xbc167ebb	-0.009185488
248	0x3ecd1750	0.4005685
249	0xbe9c4cf2	-0.30527455
250	0xbd951039	-0.07278485
251	0x3eacbe78	0.33739066
252	0xbed432f3	-0.4144512
253	0xbe950a38	-0.2910936
254	0x3e514974	0.20438176
255	0xbeb40e06	-0.3516695

conv1.bias f4 [10]
0	0xbdad461d	-0.08460639
1	0xbe6f161b	-0.23348276
2	0xbf7988c9	-0.9747434
3	0xbddd26d7	-0.10798424
4	0x3ec772d6	0.389548
5	0x3f13fe07	0.5780949
6	0x3df69291	0.12039674
7	0xbeba7c00	-0.3642273
8	0x3ed6d1db	0.41956982
9	0x3e304ca3	0.17216735

conv2.weight f4 [50, 10, 3, 3]
0	0xbd797ee2	-0.06091202
1	0x3d438b1d	0.04774009
2	0x3d969d0f	0.07354175
3	0xbdbb133a	-0.091345266
4	0x3dd08c1e	0.10182975
5	0x3d0f4c63	0.034984957
6	0xbcb9a12a	-0.022659857
7	0x3cb806bc	0.022464149
8	0xbdb1308d	-0.086518385
9	0x3dc4c2b6	0.09607451
10	0xbdb44624	-0.08802441
11	0x3dc984bb	0.098397695
12	0xbd17b8e0	-0.037041545
13	0x3d99cd62	0.07509877
14	0xbc35ae74	-0.011088956
15	0xbcaeaef2	-0.021323655
16	0x3d47d8c4	0.04879071
17	0x3d9ad521	0.07560182
18	0xbdc6f19c	-0.09714052
19	0xbc0edda0	-0.008719832
20	0xbe0804ce	-0.13283083
21	0x3df0b5b4	0.11753407
22	0x3d129072	0.035782285
23	0xbd22d9a4	-0.03975834
24	0x3d149ebf	0.036284205
25	0x3daf3502	0.08555032
26	0xbb7b0989	-0.0038305244
27	0x3dec43ed	0.11536393
28	0x3d883552	0.06650795
29	0x3d8b8c25	0.0681384
30	0x3cfb1ba9	0.030652838
31	0x3ca9d35c	0.020730667
32	0xbde3197d	-0.11088846
33	0xbddca42c	-0.10773501
34	0x3d00835f	0.031375285
35	0x3d7c4197	0.06158599
36	0x3e2e8fd8	0.1704706
37	0x3e2dd8c3	0.1697722
38	0x3d1ff255	0.039049465
39	0xbd1ff4d4	-0.039051846
40	0xbd09e9dd	-0.033670295
41	0xbd9a0200	-0.07519913
42	0xbe0e25cf	-0.1388161
43	0xbdbc014e	-0.09179936
44	0xbbe555f2	-0.006998771
45	0x3d216389	0.039401565
46	0x3df9ffbd	0.12206981
47	0xbd288896	-0.041145884
48	0xbd8120f4	-0.063051134
49	0xbd80d471	-0.0629052
50	0x3dc9e2ce	0.09857713
51	0xbce75eeb	-0.028243503
52	0x3c30ed24	0.010798726
53	0x3ca45d20	0.020063937
54	0x3d43f592	0.047841616
55	0xbc2ab394	-0.010418791
56	0x3daa0692	0.083020344
57	0x3d1d3d06	0.038388275
58	0xbd008e48	-0.03138569
59	0x3d229845	0.039695997
60	0xbb8bfada	-0.004271847
61	0xbdb7214a	-0.08941896
62	0x3c3fd024	0.011707339
63	0xbd140a12	-0.036142416
64	0x3bddfd1f	0.006774559
65	0x3d9e5f3d	0.07733009
66	0xbd123cba	-0.035702445
67	0xbdb14d28	-0.086572945
68	0x3dd6f687	0.1049624
69	0xbd862740	-0.06550455
70	0xbba72697	-0.005101036
71	0xbda3d083	-0.07998755
72	0x3de2883d	0.11061142
73	0x3e0389bc	0.1284551
74	0x3ca9d053	0.02072922
75	0xbdffbed8	-0.124875724
76	0x3d8329cb	0.06404456
77	0x3d03159c	0.03200303
78	0xbe4531d4	-0.19257289
79	0xbdf40db6	-0.11916678
80	0xbdc09cfd	-0.09404943
81	0xbc128a0c	-0.008944046
82	0x3ceaed9a	0.02867775
83	0x3d165c42	0.036709078
84	0x3de52564	0.11188772
85	0x3d09c55f	0.033635493
86	0xbc2e1e0c	-0.010627281
87	0x3bff9d4f	0.007800735
88	0x3d19591c	0.037438497
89	0xbdd49972	-0.1038083
90	0xbdcf1f02	-0.10113336
91	0x3ca04209	0.019562738
92	0x3dba2ca3	0.09090545
93	0xbd2091b9	-0.039201472
94	0x3dd08352	0.10181297
95	0x3d0a3da3	0.033750188
96	0xbc87864c	-0.01654353
97	0xbcb2c00f	-0.021820096
98	0x3da80537	0.0820412
99	0xbdb95270	-0.09048927
100	0xbdbf084a	-0.09327753
101	0x3dc1a578	0.09455389
102	0x3d96ebf5	0.07369224
103	0x3d83b177	0.06430333
104	0x3d3cee64	0.046125785
105	0x3b84acb0	0.0040489063
106	0xbd01043e	-0.031498186
107	0x3ce434af	0.027857153
108	0x3df1c6a5	0.118054666
109	0xbdcf23eb	-0.10114273
110	0x3d391e3b	0.045194846
111	0x3dc7ad25	0.097498216
112	0x3e13a6bb	0.14419071
113	0xbd6ea768	-0.05826512
114	0xbdf91ef1	-0.12164105
115	0x3d9b7da0	0.075923204
116	0xbdabb0c0	-0.08383322
117	0xbd9cb081	-0.07650853
118	0xbe207318	-0.15668905
119	0xbdf32612	-0.11872496
120	0x3e41c5f9	0.18923177
121	0x3dd68b0b	0.10475739
122	0x3d8fa355	0.07013575
123	0x3e09f82b	0.13473575
124	0x3c04c656	0.008103928
125	0x3d9f5335	0.07779542
126	0xbdc0a20f	-0.0940591
127	0x3d389a00	0.04506874
128	0xbdf0dd6c	-0.11760983
129	0xbd9a1aa3	-0.07524612
130	0x3c2d7c20	0.010588676
131	0x3d6f909d	0.058487523
132	0x3e18a2d6	0.14905867
133	0xbd3b5004	-0.045730606
134	0xbd1a3334	-0.037646487
135	0xbd8f33da	-0.06992312
136	0xbdc0d360	-0.094153166
137	0x3dbcc71b	0.09217664
138	0x3de8e246	0.11371283
139	0xbe220ff5	-0.158264
140	0xbd4e8252	-0.050417252
141	0x3e5ab11b	0.21356623
142	0x3e999392	0.299954
143	0xbc1a9963	-0.009435984
144	0x3df1a313	0.11798682
145	0xbd7165e9	-0.05893508
146	0xbdcabce8	-0.09899312
147	0xbb9f6229	-0.0048639965
148	0x3d99b91b	0.07506009
149	0x3cee85f6	0.029116612
150	0x3d59d954	0.053185776
151	0x3da47998	0.08031005
152	0x3da0f27d	0.07858751
153	0x3dac32c9	0.08408124
154	0xbd09634d	-0.033541966
155	0x3c3b2542	0.011422457
156	0x3cb0f575	0.021601418
157	0xbcb0308f	-0.02150753
158	0x3d0ca680	0.034338474
159	0xbd8a852b	-0.06763681
160	0xbd8d4255	-0.068974175
161	0x3d47505f	0.048660632
162	0xbd697a99	-0.057001684
163	0xbc05d0cb	-0.008167456
164	0xbd1bef1f	-0.03806984
165	0x3e303735	0.1720856
166	0x3e1a9a52	0.15097931
167	0xbcd92972	-0.02650902
168	0xbe144a3a	-0.1448144
169	0x3d57058e	0.05249553
170	0xbd061234	-0.032732204
171	0xbcb025cc	-0.021502398
172	0xbe002bd7	-0.12516724
173	0x3d9d898a	0.07692249
174	0x3dd571f8	0.104221284
175	0xbda7387b	-0.0816507
176	0x3cc49f39	0.024001705
177	0x3ce4f231	0.027947517
178	0x3e010f6d	0.1260354
179	0xbd2e025d	-0.042482723
180	0x3db947e4	0.09046915
181	0x3d08180b	0.033226054
182	0x3d441264	0.0478691
183	0xbda5526e	-0.08072363
184	0x3ce752fa	0.028237808
185	0x3cf6478e	0.030063417
186	0xbbd94f88	-0.0066317953
187	0xbd97b307	-0.07407194
188	0x3d3891a2	0.04506076
189	0xbd23bdb3	-0.039975833
190	0x3b2a65b3	0.002600056
191	0xbdceb091	-0.10092271
192	0xbdbf5b05	-0.093435325
193	0xbce05f1f	-0.027389107
194	0x3d646bfe	0.055767052
195	0xbdd2e906	-0.10298352
196	0xbdbbf369	-0.09177286
197	0xbdc0ff8b	-0.09423741
198	0xbc25fe41	-0.01013142
199	0x3db3c79a	0.08778305
200	0x3be205f3	0.006897682
201	0xbd8736ed	-0.06602273
202	0xbd2a3d69	-0.04156247
203	0xbded2f13	-0.11581244
204	0xbd00084b	-0.03125791
205	0x3d31e1c3	0.043428194
206	0xbc91ed36	-0.017813306
207	0xbd35628d	-0.04428344
208	0x3cb7c3c5	0.022432217
209	0x3ca86327	0.020555092
210	0x3ca9e24c	0.02073779
211	0xbd9eb38a	-0.07749088
212	0x3d6a9236	0.057268344
213	0x3dcb8ddf	0.09939169
214	0x3ca8f235	0.020623306
215	0x3dc7b968	0.0975216
216	0xbd9731d7	-0.07382553
217	0xbd808c72	-0.06276788
218	0xbd871caf	-0.06597268
219	0x39b63cd2	0.0003475906
220	0xbd1549a6	-0.03644719
221	0xbc001cb7	-0.007819346
222	0xbdf34a35	-0.11879388
223	0xbdad0d8e	-0.08449851
224	0xbd24e81e	-0.040260427
225	0x3c877690	0.016536027
226	0x3e2631a3	0.16229872
227	0x3db78602	0.08961107
228	0xbdefc58f	-0.11707603
229	0xbd1a487e	-0.03766679
230	0x3d82ac98	0.06380576
231	0x3dfad2ae	0.12247215
232	0xbc6587f8	-0.014009468
233	0xbd9e7571	-0.07737244
234	0xbd876041	-0.06610156
235	0x3ba3ec1e	0.0050025126
236	0x3da56744	0.08076337
237	0xbd901ed4	-0.0703713
238	0xbc3a1325	-0.0113571035
239	0xbcd3bcea	-0.025846917
240	0xbd448d98	-0.047986597
241	0xbd1b1b1f	-0.03786766
242	0xbd1ff8f3	-0.039055776
243	0xbc1f9d58	-0.0097421035
244	0x3ce7c2eb	0.028291186
245	0x3c371b2b	0.011175911
246	0xbc32f45c	-0.010922518
247	0xbb816122	-0.0039483467
248	0x3d3821bc	0.044954047
249	0x3d093dc0	0.033506155
250	0x3d95f71d	0.07322524
251	0x3d924f85	0.071440734
252	0xbcc2cae6	-0.02377839
253	0x3d95e04b	0.07318171
254	0xbbec7d09	-0.007217054
255	0x3d5856ef	0.05281728

conv2.bias f4 [50]
0	0xbe13270f	-0.14370368
1	0xbea0d183	-0.31409845
2	0xbd53f6ac	-0.051748917
3	0xbde2865e	-0.11060785
4	0x3e1825b4	0.14858133
5	0xbe289dc4	-0.16466433
6	0x3d9829fe	0.074298844
7	0xbe05e72b	-0.13076465
8	0xbdb19108	-0.08670241
9	0xbe269ac6	-0.16269979
10	0xbda5d082	-0.0809641
11	0xbe6717b4	-0.22567636
12	0x3e867208	0.26258874
13	0x3e1f08e1	0.15530731
14	0x3d724c94	0.05915506
15	0xbdade565	-0.08491019
16	0xbe245c76	-0.16050896
17	0x3e0e03aa	0.13868585
18	0x3b3f863f	0.0029224304
19	0xbe6a25f1	-0.22866036
20	0x3d9c824f	0.07642042
21	0x3ddf9eed	0.109189846
22	0xbe379ce4	-0.17930943
23	0xbe237a29	-0.15964569
24	0xbd25d283	-0.040483963
25	0xbd650471	-0.05591244
26	0x3e5041b1	0.2033756
27	0xbe806d1e	-0.2508325
28	0xbd2db38e	-0.042407565
29	0xbe3f8f76	-0.1870707
30	0xbd166d3b	-0.036725264
31	0xbdc69822	-0.09696986
32	0x3e43b25d	0.19111009
33	0x3e134b56	0.14384207
34	0xbe1221f7	-0.14270769
35	0xbe84353b	-0.25821862
36	0xbd0c8265	-0.03430404
37	0xbd59732b	-0.05308835
38	0xbdfde040	-0.12396288
39	0xbd084d18	-0.033276647
40	0x3d7ca874	0.061684087
41	0xbd09d4c8	-0.03365019
42	0xbc48e76f	-0.012262209
43	0xbd2fb6cb	-0.042898934
44	0x3ac57e7d	0.0015067604
45	0x3e5a8cac	0.21342725
46	0x3eb4f5dd	0.3534383
47	0x3e358527	0.17726575
48	0x3b21aa89	0.0024668297
49	0x3e38fda4	0.18065506

conv3.weight f4 [150, 50, 3, 3]
0	0x3a3c43ec	0.0007181752
1	0xbd2641ce	-0.0405901
2	0xbd11e3f6	-0.03561779
3	0x3cd88317	0.026429696
4	0xbc2610a6	-0.010135805
5	0xbccfe36f	-0.025377003
6	0x3bf242c5	0.0073932135
7	0x3aa6e797	0.0012733814
8	0x3c187366	0.009304857
9	0x3c1b6efa	0.009486908
10	0xbcd00c0b	-0.025396368
11	0xbd0537c5	-0.03252389
12	0xbd242208	-0.040071517
13	0xbcebb361	-0.028772058
14	0x3d12314a	0.035691537
15	0x3d370c80	0.044689655
16	0x3be73829	0.0070562554
17	0x3c559b0c	0.013037454
18	0x3c5749ae	0.013140125
19	0x3d394efb	0.045241337
20	0x3c7e5fd4	0.015525777
21	0x3cb76a3e	0.022389527
22	0x3c8896d1	0.016673477
23	0xbd408d19	-0.04700956
24	0xbca9a873	-0.020710206
25	0xbc345561	-0.011006684
26	0x3ca26c3f	0.019827006
27	0xbcbbbf23	-0.02291829
28	0x3ca3066c	0.019900523
29	0x3d168537	0.036748137
30	0x3d602596	0.054723345
31	0x3aa000a5	0.0012207223
32	0x3d102d14	0.03519924
33	0xbc17e0de	-0.009269921
34	0x3d08b711	0.03337771
35	0x3b8dd419	0.0043282625
36	0xbca1749e	-0.019708928
37	0xbd493952	-0.04912693
38	0xbd79730a	-0.060900725
39	0x3d42fb30	0.047602832
40	0x3bf7c9be	0.0075618913
41	0x3baadf8a	0.005214636
42	0xbcac294b	-0.021015784
43	0xbd0b820e	-0.034059577
44	0xbca3d2c1	-0.019997956
45	0x3d2f3b92	0.04278142
46	0xbd0adadd	-0.03390013
47	0xbc202ae4	-0.009775851
48	0xbc74a3fd	-0.014931676
49	0x3b94aaf4	0.0045369808
50	0x3cda5b75	0.026654938
51	0xbc71f744	-0.014768425
52	0xbd50b774	-0.050956205
53	0xbca370f8	-0.019951329
54	0xbc8ec98e	-0.017430093
55	0x3d73030e	0.059329085
56	0x3ce96e7d	0.028495068
57	0x3ccb1799	0.024791526
58	0xbd242ae3	-0.040079962
59	0x3b28ce4f	0.0025757735
60	0x3cff90e0	0.031197011
61	0x3d0cfb06	0.034419082
62	0xbcd67c67	-0.026182367
63	0x3d31ef17	0.043440904
64	0x3c854bd5	0.016271511
65	0xbc5bbd6e	-0.013411863
66	0xbbb19708	-0.0054196157
67	0x3b88d057	0.0041752267
68	0xbd339ad1	-0.043848816
69	0xbd242cd7	-0.040081825
70	0x3cd3137b	0.025766125
71	0x3c49aa59	0.01230868
72	0x3cb7eb6b	0.022451123
73	0x3d1d7ad3	0.038447212
74	0x3bf289a8	0.007401664
75	0x3b06b3b8	0.0020553898
76	0xbd208be6	-0.039195918
77	0xbc97a9e2	-0.018513624
78	0xbc7a1619	-0.015264058
79	0x3bad48cd	0.0052882195
80	0xbd417af4	-0.047236398
81	0x3d567b2f	0.05236357
82	0x3b399fdd	0.0028324046
83	0xbb8c47ca	-0.004281019
84	0x3b95d891	0.004572936
85	0x3d08e7df	0.033424255
86	0x3d3b2d5d	0.04569756
87	0xbc548772	-0.012971746
88	0x3cfb6378	0.030687079
89	0xbd037097	-0.032089796
90	0x3c308a16	0.01077511
91	0xbd1e7828	-0.03868881
92	0xbd405e3c	-0.04696487
93	0xbbf4715a	-0.0074598016
94	0xbc979d0f	-0.018507509
95	0xba2a9e04	-0.00065085315
96	0x3d2a6f62	0.04161013
97	0xbd2e44ce	-0.042546086
98	0xbb770786	-0.0037693693
99	0x3d2630bf	0.04057383
100	0xbcf43cbb	-0.029814115
101	0x3b04052e	0.002014469
102	0x3c687cf0	0.014189944
103	0xbd1b1e91	-0.037870947
104	0xb8a52be7	-7.8759906e-05
105	0x3ccdbb6f	0.02511379
106	0x3d2113c2	0.039325483
107	0xbcae3373	-0.021264767
108	0xbd5745f1	-0.052556936
109	0xbc99125d	-0.018685514
110	0xbcb6daba	-0.022321094
111	0xbce4d83b	-0.027935138
112	0xbd09fecb	-0.033690255
113	0xbd3040cf	-0.043030556
114	0xbcf3d3a8	-0.029764012
115	0x3d56f322	0.052477963
116	0x3d3b14bb	0.045674067
117	0xbc804825	-0.015659401
118	0xbb8d425b	-0.0043108887
119	0xbd2618ae	-0.04055088
120	0xbc2ac77e	-0.010423539
121	0x3d0d56e6	0.0345067
122	0x3d0c270e	0.034216933
123	0x3d0d3694	0.034475878
124	0xbc78cc43	-0.015185419
125	0x3c8ab1c6	0.016930472
126	0xb83382d3	-4.2798765e-05
127	0x3c939899	0.0180171
128	0x3c59d00a	0.013294229
129	0x3c0d3dee	0.008620722
130	0x3ce9683b	0.028492084
131	0x3c556dd3	0.013026672
132	0xbc80fac2	-0.01574457
133	0xbcf785be	-0.03021514
134	0xb9f68001	-0.00047016147
135	0xbca30ad6	-0.019902628
136	0x3d1444b1	0.03619832
137	0xbbb18630	-0.0054176077
138	0x3ca383e7	0.019960357
139	0x3c792d6a	0.015208581
140	0xbcc4ad80	-0.024008512
141	0xbd05828a	-0.032595195
142	0xbd2c14ef	-0.04201215
143	0x3c4a2bd6	0.012339553
144	0x3c60cbe5	0.013720487
145	0xbce41256	-0.027840775
146	0x3d09f1b5	0.033677775
147	0xbc8c2c59	-0.01711099
148	0xbcae5323	-0.021279877
149	0xbcfec770	-0.031100959
150	0xbd09448d	-0.03351264
151	0x3cc34ec1	0.023841264
152	0xbcd0b9cb	-0.025479218
153	0x3b868c57	0.0041060853
154	0x3d7d66f6	0.06186577
155	0x3d5d1203	0.053972255
156	0x3d37ab99	0.044841383
157	0x3d1a03f8	0.03760144
158	0x3d36a202	0.044588096
159	0xbd22f689	-0.039785895
160	0xbceeb9d2	-0.02914134
161	0xbd4f5b00	-0.050623894
162	0xba39a622	-0.00070819457
163	0xbd2827c6	-0.041053556
164	0x3cb0939f	0.021554766
165	0x3cee5140	0.029091477
166	0xbce047f6	-0.027378064
167	0x3c9285ea	0.01788612
168	0xbca22400	-0.019792557
169	0x3a5702c9	0.0008202014
170	0xbd4c74e8	-0.049916178
171	0xbc87fd60	-0.01660031
172	0xbc8d8c44	-0.017278798
173	0x3cd1f8af	0.025631277
174	0x3d010efe	0.03150844
175	0xbd05146f	-0.03249019
176	0x3cea1ba2	0.02857763
177	0xbd47dadb	-0.0487927
178	0xbd1e2f61	-0.038619403
179	0xbd2fefdf	-0.04295337
180	0xbc8a5ec4	-0.01689089
181	0xbb83f35c	-0.0040268134
182	0xbbf4fd42	-0.0074764797
183	0x3c331ff0	0.010932907
184	0xbbaa5b72	-0.0051988894
185	0x3ce03b23	0.027371949
186	0x3b820cc5	0.0039688074
187	0x3d43c636	0.04779645
188	0xbb877a94	-0.0041344855
189	0xbc945913	-0.01810888
190	0x3c4c4ca6	0.012469446
191	0xbd12f861	-0.035881404
192	0xbcadb280	-0.02120328
193	0x3c227580	0.0099157095
194	0xbd1d580a	-0.03841404
195	0xbbba658f	-0.0056883763
196	0xbc783eff	-0.015151738
197	0x3c2a9e5c	0.010413732
198	0xbc2682ba	-0.010163004
199	0x3c9afb3f	0.018918632
200	0x3c5f3629	0.013623753
201	0xbcc561ad	-0.024094427
202	0xbd405dbb	-0.04696439
203	0xbc9cdeee	-0.01914927
204	0x3c2f9832	0.0107174385
205	0xbb039e30	-0.00200833
206	0xbc325880	-0.010885358
207	0x3bc21b47	0.005923662
208	0x3cfaa514	0.030596294
209	0x3c473f1f	0.012161045
210	0x3d021955	0.03176244
211	0xbc37226f	-0.011177643
212	0x3ca2982b	0.01984795
213	0xbbb6d59c	-0.0055796634
214	0xbbc18ba3	-0.0059065386
215	0xbd1596da	-0.036520816
216	0x3d39e6ad	0.045386005
217	0xbd010492	-0.0314985
218	0x3d2f9646	0.04286792
219	0xbc47cd33	-0.012194919
220	0xbd4b396b	-0.049615305
221	0xbd54a17d	-0.05191182
222	0xbcb08d64	-0.021551795
223	0xbd31f495	-0.043446142
224	0xbcc8bfc6	-0.024505507
225	0x3d209c2b	0.039211433
226	0x3b2a172b	0.002595375
227	0xbd2ec4f4	-0.042668298
228	0x3cb98e62	0.022650901
229	0xbd0f98ec	-0.035057947
230	0xbd2cc973	-0.042184304
231	0xbd15406c	-0.03643839
232	0x3b428fee	0.002968784
233	0x3d29417a	0.04132221
234	0xbc29abb2	-0.010355877
235	0x3d09d936	0.033654414
236	0x3d1b3c20	0.037899137
237	0xbd200632	-0.03906841
238	0x3d0e9bf3	0.034816694
239	0x3d181d56	0.037137352
240	0xbcb608a0	-0.02222091
241	0x3d25ae85	0.040449638
242	0xbd1ed16d	-0.038773943
243	0x3d4cee4f	0.050031956
244	0x3c863c82	0.016386274
245	0xbd0857dc	-0.033286914
246	0xbcac14b3	-0.021005964
247	0x3d2913db	0.0412787
248	0xbd0e2761	-0.034705523
249	0x3c69cf53	0.014270621
250	0xbcc6e150	-0.02427736
251	0x3cbffc51	0.023435744
252	0x3c87ed29	0.016592579
253	0x3d18dd8d	0.037320662
254	0x3d4e2974	0.0503325
255	0xbd26b908	-0.040703803

conv3.bias f4 [150]
0	0xbcaec7c8	-0.021335497
1	0xbd3f9f4a	-0.04678277
2	0xbda2c9e7	-0.07948666
3	0xbcf358ae	-0.029705372
4	0x3bee7c97	0.007278036
5	0x3d756249	0.059908185
6	0xbd436bcf	-0.047710236
7	0xbda727c8	-0.081618845
8	0x3c239d1b	0.009986187
9	0xbd783297	-0.06059512
10	0xbb9f7b78	-0.0048670135
11	0xbd84020e	-0.064457044
12	0x3e680439	0.22657861
13	0xbd24406b	-0.040100496
14	0x3d6078c6	0.05480268
15	0x3d072303	0.032992374
16	0xbc95d2c4	-0.018288977
17	0x3d1564f3	0.036473226
18	0xbd7775a4	-0.060414925
19	0x3d69fde5	0.0571269
20	0x3dc124af	0.09430825
21	0xbc8fa6ac	-0.01753553
22	0xbdc9ed43	-0.09859707
23	0x3caa07de	0.020755704
24	0xbcad90d2	-0.02118722
25	0xbcd91afb	-0.026502123
26	0x3c12fbfc	0.008971211
27	0xbd5325aa	-0.05154959
28	0xbcd8504b	-0.026405474
29	0xbc1467a9	-0.009057918
30	0x3c986ef6	0.018607598
31	0xbbe148a4	-0.0068751145
32	0xbbe2f7ff	-0.006926536
33	0x3da81f49	0.08209092
34	0x3e21f47c	0.1581592
35	0x3daa1377	0.08304494
36	0xbc9ef85b	-0.019405534
37	0xbcd35d2b	-0.025801262
38	0x3db4132c	0.08792719
39	0x3d4ae08d	0.049530555
40	0x3bb9b3b8	0.005667176
41	0x3ce90527	0.02844484
42	0xbe491c46	-0.19639692
43	0xbcbdae6b	-0.023154458
44	0x3da9b337	0.08286136
45	0x3e4cf17d	0.20013995
46	0x3d1cfff1	0.038330022
47	0x3d55a5e6	0.052160166
48	0x3dd90675	0.10596935
49	0x398b40cb	0.0002656042
50	0xbd42c518	-0.047551244
51	0x3e829e17	0.25511238
52	0x3e5b4aca	0.21415249
53	0x3d91bdcd	0.0711628
54	0xbd7e1fda	-0.062042095
55	0xbcf68836	-0.030094247
56	0xbd19b7bb	-0.037528735
57	0x3c1bb787	0.009504206
58	0xbc8e9dae	-0.017409172
59	0x3d2ccf77	0.04219004
60	0xbd352e8c	-0.044233844
61	0xbc925019	-0.01786046
62	0x3cc3fe1e	0.023924883
63	0xbc57559a	-0.013142968
64	0x3b24f118	0.0025168117
65	0x3e8be653	0.2732416
66	0x3eba0cfd	0.36338034
67	0x3e7522d2	0.23939064
68	0xbe456be3	-0.19279437
69	0xbc33c18e	-0.01097144
70	0x3e3f87c1	0.1870413
71	0xbc7a59a9	-0.015280166
72	0xbe01f99e	-0.12692878
73	0xbc8623f7	-0.016374571
74	0x3d730d4c	0.059338853
75	0x3d878a63	0.06618192
76	0x3d1e1766	0.038596533
77	0xbe02f8be	-0.127902
78	0xbba02cc0	-0.004888147
79	0x3e675761	0.22591926
80	0x3bb9f6f5	0.0056751915
81	0xbcf548c2	-0.02994192
82	0xbdcc4ca8	-0.099755585
83	0x3c9068c9	0.01762809
84	0x3c28d40c	0.010304462
85	0xbd96161b	-0.07328435
86	0xbce52c1a	-0.02797513
87	0xbd58811b	-0.0528575
88	0xbcb59731	-0.02216682
89	0x3de6b808	0.1126557
90	0xbd7885c0	-0.06067443
91	0xbdd9f32b	-0.10642084
92	0xbca68021	-0.020324768
93	0xbd185870	-0.037193716
94	0x3d90960c	0.07059869
95	0xbd737d78	-0.05944583
96	0xbcbdd967	-0.023174955
97	0x3e754ea8	0.23955786
98	0xbd94c151	-0.07263435
99	0x3d2ee73c	0.04270099
100	0x3e4f3f20	0.20238924
101	0x3c3e022b	0.011597197
102	0x3e42ff6e	0.19042751
103	0xbded488a	-0.11586101
104	0x3d517836	0.051140033
105	0xbe2e51c4	-0.17023379
106	0x3d43c279	0.047792885
107	0xbd37385f	-0.044731494
108	0xbd41caee	-0.04731267
109	0xbc77a577	-0.0151151335
110	0x3d6d8397	0.057986822
111	0x3df6a27e	0.12042712
112	0x3cc9f070	0.024650782
113	0xbcf9c753	-0.030490553
114	0xbcc13414	-0.023584403
115	0xbd814b81	-0.06313229
116	0x3e066ac2	0.13126662
117	0xbd274526	-0.04083743
118	0xbbda2f09	-0.006658439
119	0xbcda2eeb	-0.0266337
120	0xbc985d12	-0.018599067
121	0x3e0296cf	0.12752841
122	0xbd6f8173	-0.05847306
123	0x3de1bd7c	0.110224694
124	0x3d391832	0.04518909
125	0x3d2b2d7d	0.041791428
126	0x3d48ffea	0.049072184
127	0x3c3f8721	0.011689932
128	0xbdcc04ae	-0.0996183
129	0x3cb69dcb	0.022292038
130	0xbdacd860	-0.08439708
131	0xbdca3a82	-0.09874441
132	0xbe67e936	-0.22647557
133	0xbc9e7d4f	-0.019346861
134	0xbd1690d4	-0.036759213
135	0xbd3b665e	-0.04575192
136	0x3d3b6081	0.04574633
137	0x3e56efc0	0.20989895
138	0x3d5b9a9f	0.053614255
139	0xbd457a22	-0.048212178
140	0x3d8f077b	0.06983849
141	0xbdd4dc97	-0.10393637
142	0xbd6d006e	-0.057861738
143	0xbd51b6ae	-0.051199608
144	0xbdc89d46	-0.097956225
145	0x3e58a968	0.21158373
146	0x3d9df574	0.07712832
147	0xbdc0d714	-0.09416023
148	0x3dce53d7	0.10074585
149	0x3ddfff10	0.10937321

fc1.weight f4 [10, 9600]
0	0x3cc51f59	0.0240628
1	0x3cd26c2e	0.02568635
2	0x3c57d6b8	0.0131737515
3	0xbb7a2fb8	-0.0038175415
4	0x3c07bff4	0.008285511
5	0x3cd77088	0.026298776
6	0x3c88b853	0.016689455
7	0x3b8c8e2f	0.0042894105
8	0xbad64aca	-0.0016349193
9	0xbb68e4ee	-0.0035536843
10	0xbc8109c3	-0.015751725
11	0xbcc832c6	-0.024438273
12	0xbbdfcbc5	-0.006829711
13	0x3bb8f705	0.0056446814
14	0x3c375e3c	0.011191901
15	0x3c6bc7d7	0.014390907
16	0xbace3bc4	-0.0015734364
17	0xbc45a7e5	-0.012063955
18	0xbc86eb69	-0.016469674
19	0x3a0fb94c	0.00054826285
20	0xb8eb8171	-0.000112297836
21	0x3c8766b4	0.016528465
22	0x3bcd645d	0.0062680678
23	0x3c48d123	0.012256893
24	0xbb594ad4	-0.0033156173
25	0x3b823ad2	0.003974297
26	0x3c7989f3	0.015230644
27	0x3c005be9	0.007834413
28	0x3c4fb77c	0.012678023
29	0x3bbea333	0.0058177947
30	0x3bca4a7f	0.0061734314
31	0xbb717f96	-0.0036849729
32	0x3c77783a	0.015104348
33	0x3cef1a70	0.029187411
34	0x3d077340	0.033068895
35	0x3cd2a551	0.025713595
36	0x3ca72641	0.020403983
37	0x3b172360	0.0023061857
38	0x3b99612d	0.0046807737
39	0xbc352bae	-0.011057777
40	0x3c5ab6e3	0.013349268
41	0x3c3f2fc2	0.011669101
42	0xbc281191	-0.010258094
43	0xbca1e43c	-0.019762151
44	0xbc43a275	-0.011940588
45	0xba345a67	-0.0006879926
46	0x3c7d90f1	0.015476451
47	0x3bd6dfd3	0.0065574436
48	0x3acc191c	0.0015571448
49	0xbbad4bea	-0.0052885907
50	0xbbe21837	-0.0068998593
51	0xbc03cf5d	-0.008045045
52	0xb9a13835	-0.0003075019
53	0xba885297	-0.001040059
54	0xbc00fe27	-0.007873095
55	0xbb321715	-0.0027174402
56	0xbd024b95	-0.031810362
57	0xbc09b386	-0.008404618
58	0xbb22c0e8	-0.002483422
59	0x3c02f1e2	0.00799224
60	0x3c30e83b	0.010797556
61	0xbc0945c0	-0.008378446
62	0x3bc1e41a	0.0059170844
63	0xbc4527b7	-0.012033395
64	0x3a6e930b	0.00091008906
65	0x3608d797	2.039107e-06
66	0xbb18fdd1	-0.0023344646
67	0xbc25fabe	-0.010130582
68	0xbc743de1	-0.014907331
69	0xbc08ab22	-0.0083415825
70	0xbc175b4b	-0.0092380745
71	0x3bd167bc	0.00639054
72	0x3caadde9	0.020857768
73	0x3b9dec52	0.0048194313
74	0x3cd5359c	0.02602654
75	0x3c9a7143	0.018852836
76	0xbb6a4fa2	-0.0035753031
77	0x3c0283a7	0.007965959
78	0x3c4be79a	0.012445355
79	0x3c9c02e0	0.01904434
80	0x3c9c4226	0.01907451
81	0x3c6ac672	0.01432954
82	0x3c99caff	0.018773554
83	0x3ae127da	0.0017178014
84	0x3b9505a2	0.0045477906
85	0xbbd4bf65	-0.0064925426
86	0xbbb7026f	-0.005585007
87	0x3c1232ba	0.008923227
88	0x3bf41f23	0.007450001
89	0x3b21d2f0	0.002469238
90	0xbc7cf1ac	-0.015438478
91	0xbb860892	-0.004090377
92	0xbcc2d7df	-0.023784576
93	0xbccdc7ef	-0.02511975
94	0xbca750c8	-0.020424262
95	0x3bbebd82	0.005820931
96	0x3acf2bd3	0.0015805907
97	0x3c4a91c7	0.012363858
98	0xbd07e8ee	-0.033181123
99	0xbbc2f722	-0.0059498707
100	0xbcac510e	-0.021034744
101	0xbd1a12da	-0.037615635
102	0xbcc1fbb1	-0.023679586
103	0xbca7b617	-0.02047257
104	0x3a60c959	0.0008574925
105	0x3c8261de	0.015915807
106	0xbaa8fb83	-0.0012892339
107	0xb860268a	-5.3441654e-05
108	0x3bcf63bf	0.0063290293
109	0xbc1c05cd	-0.009522867
110	0xbc5ae176	-0.013359418
111	0xbc33deff	-0.010978459
112	0xbba8de70	-0.0051534697
113	0x3b42cee8	0.0029725377
114	0x3c3df51a	0.011594081
115	0xbbd4e422	-0.006496922
116	0x3c5942b1	0.013260529
117	0x3b8445d8	0.0040366463
118	0x3bcbdc56	0.0062213344
119	0xbbf22a7b	-0.007390318
120	0x3bdd82f3	0.006759995
121	0xbc399cd4	-0.011328895
122	0xbc3d1c15	-0.01154234
123	0x3c0f9241	0.008762897
124	0x3b9f9a9e	0.0048707267
125	0x3bab753c	0.0052324813
126	0x39f6edfc	0.00047098089
127	0x3c5ad2cc	0.013355922
128	0x3cb473b3	0.022027826
129	0x3c78f272	0.015194522
130	0x3ac189f2	0.0014765842
131	0xbd06b894	-0.03289087
132	0xbcca0d50	-0.024664551
133	0xbcb88a69	-0.022526937
134	0x3c2975f7	0.010343066
135	0x3aadff5d	0.0013274957
136	0x3c3752a5	0.011189138
137	0x3c9fa059	0.01948564
138	0xbba34864	-0.004982995
139	0xbc791708	-0.015203245
140	0xbcd0daf4	-0.02549503
141	0xbb235081	-0.002491981
142	0x3cb80585	0.02246357
143	0x3c9ecf76	0.019386034
144	0x3c816c7c	0.0157988
145	0x3cfbdb2d	0.03074416
146	0x3c25aaa6	0.010111487
147	0x3b327751	0.0027231763
148	0x3cbc6c8d	0.02300098
149	0x3cc5f727	0.024165703
150	0x3d4b1acc	0.049586102
151	0x3cd4e81c	0.025989585
152	0x3cab8da5	0.020941565
153	0x3ba1070f	0.0049141715
154	0xbbff0aa6	-0.007783252
155	0xbb6e95dd	-0.0036405243
156	0x3c49f5a4	0.012326632
157	0x3d2e5fc4	0.042571798
158	0x3d9a2e64	0.075283796
159	0x3caa3c3c	0.020780675
160	0x3c666ce5	0.014064048
161	0x3b4d174f	0.003129441
162	0xbcb3bfbd	-0.021942014
163	0x3af13f66	0.0018405735
164	0x3c423a95	0.011854787
165	0x3d49dcca	0.049282826
166	0x3c821164	0.015877433
167	0x3c2924da	0.0103237275
168	0xbb9a4af6	-0.004708643
169	0xbbddee10	-0.006772764
170	0xbd0cc36f	-0.034366067
171	0xbd1a920e	-0.037736945
172	0xbb8e61ac	-0.0043451395
173	0x3b9ec846	0.004845652
174	0xbcb9c14d	-0.02267518
175	0xbc02630b	-0.007958184
176	0xbc487572	-0.012235032
177	0x3c600102	0.013672115
178	0xbc54dfd5	-0.012992819
179	0xbb996c9f	-0.004682138
180	0x3c6a5eae	0.0143048
181	0xbb53e8dc	-0.003233484
182	0xbcec8d9f	-0.028876124
183	0x3be10c6f	0.0068679373
184	0x3c1e1436	0.009648373
185	0x3beeb327	0.00728454
186	0x3ad95a93	0.0016582779
187	0x3c6f2c64	0.014597986
188	0x3c2e6a05	0.010645394
189	0x3b9adac7	0.0047257873
190	0xbb0c6f52	-0.0021428657
191	0x3ba34b2f	0.004983328
192	0xbc1cc38c	-0.009568106
193	0x3b05c61a	0.0020412267
194	0xbadc996a	-0.0016830389
195	0x3be087b6	0.0068521155
196	0xbc15bb05	-0.009138827
197	0xbc6a5bb8	-0.014304094
198	0x39cb4b40	0.00038775243
199	0x3b5a4082	0.003330261
200	0x3c7c597f	0.015402197
201	0x3c867dd9	0.01641743
202	0x3baf7be7	0.0053553465
203	0x3c11581a	0.008871103
204	0xbb3f860a	-0.002922418
205	0x3b2881ef	0.0025712212
206	0x3c632159	0.013862931
207	0x3c5a7042	0.013332428
208	0x3a99fcff	0.0011748372
209	0x3c3d1249	0.011540004
210	0xbb148765	-0.002266371
211	0xbb4108b2	-0.0029454646
212	0xbc0c56cd	-0.008565617
213	0x3bd3fce5	0.0064693564
214	0x39dcac47	0.00042090027
215	0x3bf20113	0.007385382
216	0x3ba61ea7	0.005069572
217	0x3c8c2e5f	0.017111955
218	0xba8660e5	-0.0010252265
219	0xbc8232d2	-0.015893374
220	0x3bbaa2dd	0.0056956843
221	0xbbdf4681	-0.0068138246
222	0x3c63385c	0.013868418
223	0x3c1b9bbe	0.009497581
224	0x3c03ab77	0.008036486
225	0x3b904c2a	0.0044036107
226	0xba218c22	-0.0006162544
227	0xbc3de8f8	-0.011591189
228	0xbc088d1b	-0.008334423
229	0xbc533c08	-0.0128927305
230	0x3aa461c9	0.0012541349
231	0x3b7cdfae	0.0038585472
232	0x3c64f391	0.013974086
233	0x3bfaac8d	0.007649964
234	0xbc35f836	-0.011106541
235	0xbb3e2bb6	-0.0029017753
236	0xbb1088c2	-0.002205417
237	0x3a88761c	0.0010411176
238	0xbc4fd6d0	-0.012685493
239	0x3ba1e0a2	0.0049401084
240	0x3c8a2299	0.0168622
241	0x3b45142b	0.0030071835
242	0x3b3f0771	0.0029148723
243	0x3b23a7c8	0.0024971832
244	0xbbaa223c	-0.0051920693
245	0x3c701e85	0.014655714
246	0x3bbf8abe	0.005845397
247	0x3ba4ccfb	0.0050293184
248	0x3ca8896c	0.02057334
249	0x3c9b4b50	0.01895681
250	0x3c381693	0.011235851
251	0x3cb311be	0.021859046
252	0x3c85458a	0.01626851
253	0x3bd4c299	0.0064929244
254	0x3adbdd77	0.0016774376
255	0x3aa993da	0.001293774

fc1.bias f4 [10]
0	0xbca5482b	-0.020176014
1	0xbe3de66f	-0.18544935
2	0x3a8fffd0	0.0010986272
3	0x3b0fb501	0.0021927955
4	0x3e335338	0.17512214
5	0xbcc9a061	-0.024612607
6	0x3e2c1f1a	0.1680874
7	0xb9579ebf	-0.00020563135
8	0x3db18b40	0.08669138
9	0xbe579c38	-0.21055686
