logs/best_epoch_1.ckpt (torch, 676783 bytes, 8 tensors)

conv1.weight f4 [10, 3, 3, 3]
00000000: 7677 e7bc 4830 d83d 7b0a e93d bef8 2a3d
00000010: d768 1cbe 3478 37bd 67fb 44bd a9ce 08be
00000020: 0ae3 fc3b fe6f d0bc 3ea9 a6bd a9c1 03be
00000030: e79b 42be 70de 883d f900 163d a0bd 32be
00000040: 6bf3 6fbc 27da 8cbc 46ce b9bd 6a90 d3bd
00000050: 01bf 20bc cc04 f83c f5f8 d3bd 7322 313e
00000060: af3c db3d 5ced 283e 661b 26bd decd c83d
00000070: e7cb 783d 496d 2d3d 4b6f 50be 42c4 4ebe
00000080: 95c1 1f3d d5e1 6abe 1abe cbbd 1356 4bbe
00000090: ca21 c13d 7ccf cb3a fb1b 42be e7f4 883d
000000a0: 60e6 d2bd c8f4 de3d 2108 093e f8ae 12be
000000b0: cd01 0a3d aa88 0c3e 00e3 6a3e 144e 4b3e
000000c0: ec02 90bd 9d2a 0f3e b3a2 393e 3afe 063e
000000d0: daa4 033e b6a0 de3d 6453 12bc 59a1 613e
000000e0: c4a8 5bbd e952 9dbd 0fef 46be 04e0 213e
000000f0: d6d4 61be bde0 b7be 37e0 96bd f407 6f3e
00000100: 47a9 bd3c 6dec 103e a239 3bbd c801 b23d
00000110: d752 233e 1ec4 82be a8e1 cfbc 4318 2cbd
00000120: eb71 a93e fa74 df3e 4ed5 923e 8b11 e83e
00000130: 8bc5 8f3e d8bd e03e a308 5b3d 36cf 493e
00000140: 46b2 573d b069 b03e 12b6 933e 4bb0 743e
00000150: 089c 8c3e 7f73 e03e 309f 8f3e 15ac b1bb
00000160: c2a2 e5bd 1b4d 733e 36d6 023e f733 c13d
00000170: 190a 88bc 495e a93c d3a3 c23d 306d 2c3d
00000180: 8a0b 65be 8ea7 c7be 9753 51be 2434 1cbe
00000190: 1c33 28bd 914f 14bb 2dd8 05bd bf21 74bd
000001a0: 23c2 5dbe 86e6 59be eefb c6bd 2cdf 8dbe
000001b0: eabb 5d3e 1f22 b63e 11c5 c83d 6653 f53e
000001c0: f5fc 943e 9bba a63c 362a 463e 5c94 9f3e
000001d0: f8ef d6bd 2de9 8dbe f338 84be 8b4f 9fbe
000001e0: 79bc 37bd 830f 29bd 3966 38be 378b 4dbe
000001f0: cfa8 7abe 6306 38be 54fa 143e 66de 9abe
00000200: ab26 4cbe 16a9 383e fe09 d4bd 60a7 ebbe
00000210: 1d7c dbbd ece2 763d 41e9 b0be 67b8 a73e
00000220: e1d4 a83e 0e71 eb3e 26de bcbe d4c4 0ebe
00000230: 94a1 97be e426 c2be 37a2 b6be 3dad cebe
00000240: 280f b63d 9dc9 883e c63f 683e d238 05be
00000250: b03d 84be 3e41 68be 1094 97be 8ee2 2fbf
00000260: cfed 01bf 84c1 123f 6e05 253f 085d 9e3e
00000270: 9cc4 2c3e 3acc 40be 0c46 023d 6038 c4bc
00000280: 78f2 80be 88cf a7be 9428 f4bd 80be 423e
00000290: 6a12 8ebd 42af de3d 6513 92bd ba7a 213e
000002a0: f500 6bbe 3399 d3bd 1f7e 5f3e fcc4 243d
000002b0: 147a 733e 6584 ad3d 9890 68be 30ca a43d
000002c0: e21c 833e 2b41 46bd ba09 a93d fdd7 163e
000002d0: b07f 0abe 13c9 07be ddbe 82be f521 0c3c
000002e0: 7fa0 d7bd e2ec 15be e9ff a1be a137 a3bd
000002f0: e47b 2b3c d68b 8f3d 297a 33be 8747 2cbe
00000300: 4871 8e3d 9771 31be c959 8bbe 9867 14bd
00000310: 0a59 b4bc b3c3 90bd 041b 1fbd 06df 333d
00000320: e955 18be 7051 913d 615b 1ebe 70a2 043e
00000330: 443d 5cbe 7be2 8e3d 4c12 42be d4ff e4bd
00000340: e5f3 423d 887c 853c 5e70 653d ea3b 223e
00000350: c2ac 6a3e ce42 f33d 820f 3b3e 0d09 593e
00000360: 3d44 f23d b839 ca3e 1908 883e 404b 843e
00000370: 6e42 f63d 3036 c43e 2433 903d 77b0 1a3e
00000380: b0ff ac3e c7cb b93b a004 21bb 45e5 963e
00000390: 8d28 493e a861 5a3e 80d1 453e 4b72 d6bd
000003a0: 434d 033e 2bdc ce3e d30f 1abf 74df 18bf
000003b0: 24d4 8abe b1d0 10bf ea34 c5be b76a eabe
000003c0: 8a22 efbe a422 1fbf efef e3be cbfa 84bd
000003d0: 720e ef3d 2164 573e c1cd e0bd 1585 0c3c
000003e0: fccc 5a3e 3fb0 23be 9f89 c2bd 9d7f ff3d
000003f0: 3cfb 73be fc97 57be 2523 b33d 2348 2ebe
-0.028255206 0.10556084 0.11378952 0.041741125 -0.15274368 -0.04479237 -0.04809132 -0.13360085
0.007717495 -0.025444027 -0.08137749 -0.12866844 -0.19004785 0.066830516 0.03662202 -0.17455149
-0.014645438 -0.017193867 -0.09072547 -0.10330279 -0.009811164 0.030275725 -0.10350219 0.17298298
0.10704934 0.16496795 -0.040553473 0.09804891 0.06074133 0.04234055 -0.20354955 -0.20192054
0.039002974 -0.2293771 -0.09948368 -0.19857053 0.09430273 0.0015549506 -0.18955986 0.066873364
-0.10297847 0.10886532 0.13382007 -0.14324558 0.033693124 0.13724008 0.22938156 0.19854003
-0.07031807 0.139811 0.18128471 0.13182917 0.12855855 0.10870497 -0.008931015 0.22034205
-0.053627744 -0.076818295 -0.19427131 0.15808111 -0.22053847 -0.3591365 -0.07366984 0.23342878
0.023152007 0.1415269 -0.04570926 0.08691746 0.1594957 -0.2554025 -0.025376156 -0.042015325
0.33094725 0.43643934 0.28678364 0.45325884 0.280804 0.4389484 0.053475033 0.19707951
0.05266025 0.34455633 0.28849846 0.23895375 0.27462792 0.43838117 0.28051138 -0.005422125
-0.11212684 0.23759882 0.12777027 0.0943374 -0.016606377 0.020674841 0.09503903 0.042096317
-0.22367683 -0.38995022 -0.20442043 -0.15254265 -0.041064367 -0.0022630433 -0.032676864 -0.059602495
-0.21656089 -0.21279344 -0.097160205 -0.2770933 0.21653715 0.35572907 0.098032124 0.4791519
0.2909924 0.020352652 0.1935204 0.31167877 -0.10494989 -0.27716962 -0.258247 -0.31115374
-0.044857476 -0.04127456 -0.18007745 -0.20072637 -0.24478458 -0.17971186 0.14548618 -0.30247802
-0.19936626 0.18033251 -0.10353468 -0.46026134 -0.10717032 0.060275003 -0.3455296 0.32757875
0.32974914 0.4598469 -0.36888236 -0.13942271 -0.29615462 -0.37920296 -0.35670635 -0.40366545
0.088896096 0.2671632 0.22680578 -0.13009956 -0.25828314 -0.22681138 -0.2960515 -0.6870507
-0.5075349 0.5732653 0.6446141 0.30930352 0.16871876 -0.18827906 0.031805083 -0.023952663
-0.2518499 -0.3277552 -0.11921802 0.19017982 -0.06937106 0.108732715 -0.071326055 0.15769473
-0.22949584 -0.10331955 0.21825455 0.04022692 0.23777038 0.08472518 -0.22711408 0.08046377
0.25607973 -0.048401993 0.08253808 0.1473083 -0.13525271 -0.13260297 -0.25536242 0.008553018
-0.10528659 -0.14641145 -0.31640556 -0.07969595 0.01046655 0.070090935 -0.17527069 -0.1682416
0.069552004 -0.17328487 -0.27216938 -0.036231607 -0.022015113 -0.07068577 -0.038844123 0.043913864
-0.14876522 0.07095611 -0.15464546 0.1295259 -0.21507746 0.069767915 -0.18952292 -0.11181608
0.047595877 0.016294733 0.056015365 0.15843168 0.22917464 0.11877976 0.18267635 0.21194859
0.11829422 0.3949716 0.26568678 0.2583866 0.12024389 0.38322592 0.07041004 0.15106378
0.33788824 0.005670044 -0.0024569407 0.29471794 0.19644375 0.21326315 0.19318199 -0.104710184
0.12822442 0.4040235 -0.60180396 -0.5971596 -0.27114975 -0.5656844 -0.38516933 -0.45784542
-0.4670604 -0.6216223 -0.44518992 -0.064931475 0.11672677 0.2103429 -0.109767444 0.008576651
0.21367258 -0.15985201 -0.094989054 0.12475512 -0.23826307 -0.21054071 0.08746938 -0.17019705

conv1.bias f4 [10]
00000000: f600 acbd cfdb 71be 0f75 33bf a767 0a3c
00000010: b37a cf3e 0386 1b3f 7665 0c3e 03e6 bbbe
00000020: b218 eb3e be53 603e
-0.08398621 -0.23619007 -0.7010049 0.008447564 0.405233 0.6075136 0.1371058 -0.36698923
0.4591728 0.21906945

conv2.weight f4 [50, 10, 3, 3]
00000000: 2958 79bd baa8 433d 50ac 963d 3af7 babd
00000010: 0594 d03d 7758 0f3d c69b b9bc 4506 b83c
00000020: 0032 b1bd 8712 c23d 55e9 b0bd 9d3c ce3d
00000030: 4f64 39bd a8d7 933d 8487 84bc 2392 e1bc
00000040: 6c03 1c3d 18a2 893d 24da 56bd 555a 413d
00000050: 2197 ccbd ed86 e53d e616 283d fb16 4abd
00000060: 92df c53c 9430 8c3d 8c13 8fbc d831 c03d
00000070: f4c3 163d 3c8d 583d 519a 243d 621d f13c
00000080: 796a d7bd 1bc6 99bd 0786 8e3d a41a be3d
00000090: 23a5 b83d 1d46 e63d dda7 823b 2fb1 57bd
000000a0: d5e5 1dbd a0d8 87bd a914 e8bd 693c 78bd
000000b0: beba a13c 3cbb 273d df2c f43d 16ab c6bc
000000c0: 7b91 88bd 0f3b 75bd 6f07 bc3d ea3a 55bd
000000d0: ac6c c8bb 6b90 163d 2135 393d f87c a6bc
000000e0: 2718 983d 3921 1e3d 9a81 a8bc 3222 443d
000000f0: ea72 3f3c 55c2 89bd e622 b73c 5c22 14bd
00000100: bb63 dd3b c234 9e3d 79b0 11bd 90f3 b0bd
00000110: 1a50 d73d c87c 85bd 3431 a0bb 6279 a3bd
00000120: 90a8 7b3d 9053 5f3d 761c 0bbd e3dd cbbd
00000130: 803b ba3d 1fa9 3c3d c04f 03be d38e 22bd
00000140: d009 3fbd b2ac 31bc c6f7 9e3c 29b3 b73c
00000150: c6ed db3d b302 0c3d 5baa eabb b0f8 a73b
00000160: 1356 573d 0f64 cabd 8426 cfbd e416 a03c
00000170: 6622 ba3d 836b 21bd 4615 d03d 7e73 093d
00000180: b7b6 87bc c3f2 b2bc c7f6 a73d af0a b7bd
00000190: 1250 aabd 3c84 cf3d d589 a03d aee5 9b3d
000001a0: 03f8 823d 3fb4 c13c 03b9 a9bc a298 343d
000001b0: da8f 803d 3f37 cdbd 466d 293d 8ed5 553d
000001c0: 6ee4 db3d 3261 e9bc 5275 c5bd 8590 523d
000001d0: edb6 b8bd ee33 6fbd b9a9 e2bd 2da9 cabd
000001e0: 130f 213e 9412 ad3d cd89 cf3d bbcc 173e
000001f0: a3d1 aabc 169d 933d 0ecd 9cbd 9062 523d
00000200: 43c7 bbbd c6f9 12bd f73f 943c 2dc4 5e3d
00000210: c598 033e c5d5 d6bb fb8d 92bc 5e88 cdbd
00000220: ef56 e5bd 3ca7 393d 9a93 643d f738 e0bd
00000230: f971 ea3c 640a 473e e4ec 623e 91a0 363d
00000240: fd73 ac3d 7533 80bd 1f4b febd b0a2 79bd
00000250: cc5d 373d d686 db3c 587b 903d 027c 803d
00000260: 79a8 883d 48d8 ab3d 4b77 09bd 0a71 383c
00000270: e245 a73c a7db b7bc 07c8 083d c9ce 8abd
00000280: ec0b 8dbd fc13 473d 033b 59bd 74d1 873a
00000290: 2d42 02bd bf00 f23d b851 fa3d cd16 89bc
000002a0: ccf1 e5bd e88b 533d 61ef d9bc 9865 00bd
000002b0: 7f27 efbd bd7e 7d3d 1a71 923d 871e 79bd
000002c0: a339 4c3d c0f5 8e3c bc2d db3d 908d 1dbd
000002d0: 3a47 b93d 3e1b 083d f712 443d d352 a5bd
000002e0: 1b4d e73c e143 f63c a05d d9bb ebb3 97bd
000002f0: 208b 383d 30a3 38bd 982f 0b3a cc0b cfbd
00000300: 7a8a bdbd bc57 b6bc 0a4c 7b3d b426 d4bd
00000310: e544 b5bd 9a86 b5bd cdf2 ddbc d4f4 a93d
00000320: f301 1b3c d837 80bd c4a4 f0bb 2087 abbd
00000330: c26d 37bd f81b 343d 0074 edbb cd64 10bd
00000340: 5fff aa3c a053 bb3c 4db8 193d aa60 53bd
00000350: 9c0a a93d 7dfe d33d 903e bc3c 84cb df3d
00000360: e30f a8bd 8bcd 63bd 9bad 90bd 404f c8bb
00000370: 185a 10bd 14fa 1ebc 30a0 d2bd 742b 8cbd
00000380: fd57 e2bc 5487 24bd 6391 bd3d cf01 d63c
00000390: a6dd c7bd 7406 7cbc 32d5 863d 6908 eb3d
000003a0: 5d29 b5bb be1c 6fbd e3ca 8dbd 271b 0a3b
000003b0: 5a43 a03d 7af7 98bd ef65 e5b8 98f6 9cbc
000003c0: a44a 50bd c083 edbc e7e3 e9bc 5c98 1ebc
000003d0: 8c3d e93c 3889 393c 2d43 32bc 5db7 7bbb
000003e0: f4ac 383d 9886 093d de45 963d f297 923d
000003f0: 5631 3bbc a30b 9e3d 725e 94bb af38 613d
-0.06087509 0.047768332 0.07357085 -0.09129186 0.101844825 0.034996476 -0.022657286 0.022463927
-0.08652115 0.0947619 -0.086382546 0.10070155 -0.045261677 0.072188675 -0.0161779 -0.027535504
0.0380892 0.0672037 -0.05245413 0.047205288 -0.09989763 0.11207376 0.041037463 -0.049338322
0.024154458 0.06845203 -0.017465375 0.09384507 0.03680797 0.052869067 0.04018623 0.029432956
-0.10518355 -0.07508489 0.069591574 0.09282425 0.09015872 0.11243842 0.003987296 -0.05265921
-0.038549263 -0.06633115 -0.113320656 -0.060604487 0.019742366 0.040950045 0.11922621 -0.024251502
-0.06668373 -0.059870776 0.09181105 -0.052058138 -0.0061164703 0.03675882 0.045216683 -0.020323262
0.07426482 0.038605902 -0.020569611 0.047884174 0.0116851125 -0.06726519 0.022355508 -0.03616558
0.0067562736 0.077249065 -0.035568688 -0.08640206 0.10513325 -0.06517941 -0.004888678 -0.07982136
0.06144005 0.05452305 -0.03396269 -0.09954431 0.0909338 0.046059724 -0.12823391 -0.03968699
-0.046640217 -0.010844396 0.019405257 0.022424297 0.10738711 0.03418226 -0.0071614212 0.0051260814
0.05257232 -0.09882366 -0.10114768 0.019542165 0.09088592 -0.03940917 0.101603076 0.033557408
-0.016566617 -0.021844273 0.08201366 -0.089375846 -0.083160535 0.101326436 0.078387894 0.07612167
0.06394961 0.023645518 -0.020718103 0.044090874 0.062774375 -0.10020303 0.041363977 0.052205615
0.10736929 -0.02848873 -0.09641518 0.051407356 -0.09019265 -0.058399133 -0.11067528 -0.09895549
0.15728407 0.08450809 0.10133705 0.14824192 -0.020851916 0.07207696 -0.076562986 0.051363528
-0.091688655 -0.035882734 0.018096907 0.054386307 0.12851246 -0.006556245 -0.017889967 -0.100357756
-0.11198222 0.045325503 0.055804826 -0.10948365 0.0286188 0.19437557 0.22160679 0.04458672
0.084205605 -0.06259815 -0.12416672 -0.060946167 0.044767186 0.026797693 0.07054776 0.062736526
0.066727586 0.08390862 -0.033561032 0.011257419 0.020419065 -0.022443606 0.033393886 -0.067777224
-0.068870395 0.048603043 -0.053034794 0.0010362105 -0.03180139 0.118165486 0.12222618 -0.016734505
-0.1122776 0.051647097 -0.026603403 -0.031346887 -0.11677455 0.061888445 0.07150479 -0.06082013
0.049859654 0.017451167 0.107020825 -0.038465083 0.090467885 0.033229105 0.04786965 -0.08072438
0.028235009 0.030061664 -0.0066334754 -0.074073635 0.045054555 -0.045077503 0.0005309521 -0.10109672
-0.09254928 -0.022258632 0.061351813 -0.103589445 -0.08851031 -0.08863564 -0.027093315 0.082986504
0.009460914 -0.06260651 -0.0073438603 -0.083753824 -0.044782408 0.043971986 -0.0072464943 -0.03525238
0.020873724 0.022867024 0.03752928 -0.051605858 0.08253977 0.10351274 0.02297905 0.109274894
-0.08206155 -0.055615943 -0.070643626 -0.006112963 -0.03524217 -0.009703178 -0.102844596 -0.068442255
-0.027629847 -0.04016812 0.09256246 0.02612391 -0.09759073 -0.015382398 0.065836325 0.114762135
-0.0055286125 -0.05837702 -0.06923463 0.0021073313 0.07825346 -0.074690774 -0.000109385575 -0.019160554
-0.050852433 -0.028993487 -0.028551055 -0.00967988 0.02847173 0.011324219 -0.010880274 -0.0038408854
0.045086816 0.033575624 0.07337545 0.071578875 -0.011425337 0.07717063 -0.0045278603 0.0549857

conv2.bias f4 [50]
00000000: b63b c8bd 634b 3cbe c3b0 02bd db0f bbbd
00000010: 09dd dc3d 32e2 febd f4da a03d 33da a8bd
00000020: 2cb7 71bd a7da bcbd 6cc6 a5bc d976 17be
00000030: b62e 463e fb94 fb3d 1232 453d 7edd a5bd
00000040: 915d fcbd 4545 d73d 5b19 253d 5a62 31be
00000050: 6905 913d c51d bf3d 5a91 0dbe ba6a fbbd
00000060: 45e4 82bc 4d57 6abd a08f 0d3e 0658 41be
00000070: a2f0 35bc 3598 0fbe de88 9dbc 74bf 65bd
00000080: 633d f43d 8f34 983d 067d c5bd 2abf 0dbe
00000090: d2e2 12bd f994 20bd 6f48 25bd 74cf 0ebd
000000a0: c63e 083d a924 d43c c201 22bc 54ff ed39
000000b0: 62b3 53bb 7e6f 4d3e db52 6f3e 642a fd3d
000000c0: 94df 8dbc de48 013e
-0.09777014 -0.18388133 -0.031906854 -0.091338836 0.107843466 -0.12445487 0.07854262 -0.08244743
-0.059012577 -0.09221392 -0.020236216 -0.1479143 0.19353756 0.12284275 0.048143454 -0.08098887
-0.12322534 0.10511259 0.040307384 -0.17322674 0.0708111 0.0933185 -0.13824978 -0.12276216
-0.015977988 -0.057212163 0.1382432 -0.18881235 -0.011104735 -0.14022906 -0.019230302 -0.056090787
0.11925771 0.074319 -0.09642987 -0.13842455 -0.035860844 -0.03920457 -0.04035228 -0.03486581
0.03326299 0.025896387 -0.009888114 0.00045394397 -0.0032302965 0.20062062 0.2337145 0.12361601
-0.017318524 0.12625453

conv3.weight f4 [150, 50, 3, 3]
00000000: 4b24 cdb9 6594 38bd 4d5d 28bd 49ff 923c
00000010: c828 abbc c629 0ebd 47ca 4a3b a38e f4ba
00000020: 7154 e23b 1837 5d3c 6c17 efbc 8fd9 00bd
00000030: 578b 16bd a040 e2bc 44d5 1d3d f279 4c3d
00000040: ea2c 523c 821b d03c 8370 6d3c 36dd 3b3d
00000050: 4777 883c 7e2d b53c edb4 723c 8cd8 43bd
00000060: 2c62 bebc 9598 85bc 226a 783c 3438 e3bc
00000070: fab2 883c 7255 0b3d ba88 433d f7d4 bebb
00000080: b2ec f53c a2fa 47bc 75c6 ea3c 3a75 7f3a
00000090: ddd6 ecbb 138d fdbc c1d8 32bd 09bb 473d
000000a0: e23d 483c 8b34 0f3c b57f c0bc 4634 08bd
000000b0: 52eb 93bc b2f0 303d 6216 09bd 96dc 47bc
000000c0: 250b 3fbc 9ebf ca3b ef46 f23c 6929 45bc
000000d0: 6fb6 44bd c7b1 7fbc 2aa7 e5bc ada0 3e3d
000000e0: f357 8d3c 42b7 b73c 688a 36bd 36b4 5c3a
000000f0: 05be fc3c ad0c 183d f4c5 bcbc e197 2f3d
00000100: eb26 b13c 1a34 efbb d7b2 01ba 1c7c 5b3c
00000110: 3f6f 0abd 6323 1bbd 3d80 ef3c 5d85 863c
00000120: 4828 c53c f665 1f3d 9db5 0f3c 7274 52bb
00000130: f88a 34bd 2eb2 acbc fb19 9cbc 0635 773b
00000140: 9a53 40bd 75ad 3e3d 1990 8ebb 66fc 1fbc
00000150: ac96 6b3b 3184 063d 63a7 383d 8309 81bc
00000160: 7a92 e93c fea1 02bd 03a2 473c 27be 19bd
00000170: 4128 2cbd 2921 4dbc da97 cdbc a4ca 01bb
00000180: ce83 283d 2a67 38bd 093d a1ba 5b2b 1a3d
00000190: 6619 0ebd 7545 853a 2df0 5c3c f2b0 21bd
000001a0: 0833 d3ba 3acb b33c 5c51 133d 5258 c5bc
000001b0: 359b 29bd cd78 10bc 97cf 55bc e7c8 a7bc
000001c0: 496e f4bc d720 2bbd afd2 ddbc 245f 543d
000001d0: 143c 383d 7353 88bb b014 d53b ba7c 02bd
000001e0: edf8 c8bb c0ff 153d 3e95 0e3d 3944 223d
000001f0: c058 42bc c122 9c3c 7e40 b83b b048 d73c
00000200: 319e b23c 19aa 053c 29b5 063d 42c1 923c
00000210: b42e a0bc 0d40 f0bc ff78 463b aa2b a3bc
00000220: 37e7 143d bc56 b1bb 9139 a53c 4a17 783c
00000230: 06e8 c3bc 5db5 05bd 805d 2cbd f615 4a3c
00000240: 8d49 4a3b a462 2bbd f279 d73c 77d5 90bc
00000250: 9c4f 9abc 73d8 b8bc 269d 1bbd 6722 f53c
00000260: 4efb 9dbc 38a1 62bc 9e1d 253d 11e1 193d
00000270: 79f9 0c3d d78c d83c cb10 273d 523c 2cbd
00000280: 2e21 e1bc 2609 2cbd acd8 2cbb 69db 31bd
00000290: 0f74 a83c 61ba e23c 0eae e7bc 278f ab3c
000002a0: f4e0 9cbc 98a8 6e3a d439 43bd c569 e3bc
000002b0: df0c 07bd dd6f 053c 7140 1a3d 3eb4 e6bc
000002c0: f58a 0c3d 1f37 12bd 7512 cabc 40ab eabc
000002d0: 1928 b7bb 7c1e ad3b b21e 153b 2cf8 633c
000002e0: 6020 14bc fd6a bd3c afcc 9e3b 025a 2b3d
000002f0: c527 3fbc 0e8b 5ebc 3815 623c 0c6b 14bd
00000300: eaeb a4bc 60d3 023c a793 2bbd 0850 66bb
00000310: 2929 7abc 901c 1f3c 9b2c 81bc 3c9e 563c
00000320: 50d0 263c 6e8a d5bc 49fc 3dbd e54d 8dbc
00000330: d7b2 3c3c 8690 ed3a ea5f cabb 0aec ea3b
00000340: 49f3 f83c e57a cb3b 1489 203d 6d0d aabb
00000350: 9cd6 b33c c1bf c0bb 7a18 3abc fbbe 27bd
00000360: 1578 0c3d 9b95 27bd 9599 213d 0f39 3abc
00000370: baa5 38bd 76c7 3fbd 1ed7 88bc d0f3 15bd
00000380: 8008 69bc 3016 263d e4ed e83a 8809 2ebd
00000390: d242 d33c fb05 0cbd 3ff1 27bd c5d3 09bd
000003a0: df65 873b fe0e 333d 1279 1fbc 9245 033d
000003b0: a981 173d 23b2 17bd 18e2 103d 8544 183d
000003c0: 5ea2 d2bc d770 093d 674e 37bd 6ad3 2e3d
000003d0: ec41 d73b 1cf6 25bd a203 b7bc 9f00 203d
000003e0: a18d 14bd a251 233c f51e fabc a65a a63c
000003f0: c869 ee39 773d 9c3c 3bbc 1a3d 5385 0cbd
-0.00039127687 -0.045063395 -0.041104604 0.017943995 -0.02089347 -0.034707807 0.003094332 -0.0018658232
0.006907039 0.013501905 -0.029185973 -0.03145748 -0.03675398 -0.027618706 0.038533464 0.049920984
0.012828091 0.025403742 0.014492157 0.04586526 0.016658438 0.022116419 0.014813644 -0.047813937
-0.023240171 -0.016308108 0.015162023 -0.02773676 0.016686905 0.034017034 0.047737814 -0.005823727
0.030020092 -0.012205752 0.028659085 0.0009744946 -0.007227762 -0.030951058 -0.043663744 0.048762355
0.012221785 0.008740555 -0.023498395 -0.033252977 -0.018056545 0.043198295 -0.03346861 -0.012198588
-0.011660372 0.0061873933 0.02957484 -0.012033799 -0.048025545 -0.01560635 -0.028033812 0.04653995
0.017253852 0.022426251 -0.04456559 0.00084191875 0.030852327 0.037121464 -0.02304361 0.042869452
0.021625003 -0.007299912 -0.00049476087 0.013396289 -0.0337975 -0.037875544 0.029235953 0.016421014
0.02406706 0.038915597 0.008771327 -0.0032112864 -0.044077843 -0.021081056 -0.019055357 0.0037720813
-0.04695473 0.04655214 -0.004350674 -0.009764766 0.0035947962 0.03284091 0.045081507 -0.015751606
0.028512228 -0.03189277 0.012184623 -0.03753486 -0.042030577 -0.012520113 -0.025096823 -0.001980462
0.041141324 -0.04502026 -0.0012301515 0.037639003 -0.03469219 0.0010167795 0.013484997 -0.03947539
-0.0016113231 0.021947492 0.035966262 -0.024089966 -0.041407783 -0.008817864 -0.013049982 -0.02048154
-0.029837744 -0.041779365 -0.027078 0.051848546 0.04497917 -0.0041603385 0.0065027103 -0.03185723
-0.00613319 0.036620855 0.034810297 0.039615843 -0.01186198 0.01905954 0.0056229224 0.026279777
0.021803947 0.00815823 0.03288761 0.017914418 -0.01955352 -0.029327417 0.0030284522 -0.019918282
0.036353316 -0.005411951 0.020169051 0.015142271 -0.023914348 -0.032643665 -0.042081356 0.012334337
0.0030866594 -0.041842118 0.026303265 -0.017679913 -0.018836789 -0.022564149 -0.037991665 0.02992363
-0.01928487 -0.013832383 0.04031145 0.037568156 0.034417603 0.026434345 0.0407875 -0.042049713
-0.027481642 -0.042000912 -0.0026374264 -0.043422136 0.020563154 0.027676763 -0.028281238 0.020942284
-0.019150235 0.0009104102 -0.04766257 -0.027760396 -0.03297126 0.008144346 0.037659112 -0.028162118
0.034312207 -0.0356971 -0.024667004 -0.028646111 -0.005589497 0.005283175 0.0022753892 0.013914149
-0.009040922 0.023122305 0.0048461775 0.041833885 -0.011667197 -0.013582958 0.013799004 -0.0362349
-0.020132024 0.007984966 -0.04188886 -0.0035142917 -0.015268602 0.0097114 -0.01576834 0.013099249
0.0101815015 -0.026066985 -0.046383176 -0.017249057 0.011517248 0.0018124736 -0.0061759846 0.0071692513
0.030389445 0.0062097185 0.039193228 -0.0051895888 0.02195292 -0.005882234 -0.011358375 -0.040953618
0.034294207 -0.04091416 0.039453108 -0.011366143 -0.045079924 -0.04682108 -0.016704138 -0.03660947
-0.014223218 0.040548503 0.0017771092 -0.04248956 0.025788698 -0.03418539 -0.041001555 -0.033649225
0.004132017 0.04371547 -0.009733455 0.03204877 0.036988888 -0.03703512 0.03537187 0.03717472
-0.025712188 0.033554878 -0.044752505 0.04268209 0.006569138 -0.04051791 -0.0223406 0.039063092
-0.03626788 0.009968193 -0.03053234 0.020306896 0.0004547371 0.019072277 0.037777167 -0.034306835

conv3.bias f4 [150]
00000000: 89fa 8dbc 9180 07bd 6862 6bbd 17fa a4bc
00000010: 7703 c53b da6a b53c 4c8b 22bd ebe2 b5bd
00000020: 5ce6 c8bb 3857 4fbd ba8c 93bb 5694 e1bc
00000030: 4f6f 1e3e 9b03 dbbc d170 123d 3584 223d
00000040: 9c9d abbc fb63 1a3d 37b0 89bd 01a8 153d
00000050: 4fbb 9b3d 4202 4ebc a8e5 94bd fb12 b23c
00000060: 0406 4abc c19a 02bd 677a f037 d3b7 3fbd
00000070: c1f8 92bc d808 4abc 8372 073d 85b5 1dbb
00000080: a6a1 d3ba 41cc 5f3d b024 e93d dbad 3c3d
00000090: 5009 b5bc 7264 68bc 9567 513d 849e 1f3d
000000a0: 55d3 aebc 4917 0a3d 442d 1bbe e3a9 dfbc
000000b0: dc8c 7c3d ca20 043e 38bf ce3c aeb3 d63c
000000c0: 2f44 a03d bfe2 7c3a 44ad e4bc 1d16 2e3e
000000d0: bbba 223e 8ea2 823d 4f63 1abd de4f 3abc
000000e0: 0c26 e0bc aed6 23bc 783d 32bc 95dd 1f3d
000000f0: 7c3c 1cbd c38b 8bbc 9649 373b ab48 23bc
00000100: 57f0 893b b01c 2a3e 8561 693e 2e3e 1e3e
00000110: 73e2 ffbd 95ed 3abc f5d6 0c3e 7027 88bc
00000120: 1efc c2bd e159 bfbc ec8e 243d aa5c 533d
00000130: 5aac 9d3c f250 aabd c854 02bc be19 183e
00000140: 6de2 0aba 4df7 1bbd 960d b9bd 8447 833c
00000150: d5f7 143c c54b 7cbd 548b c0bc db5c 4abd
00000160: de2e 1bbc ba87 893d 6067 71bd 67e4 9dbd
00000170: d726 fdbb fac9 06bd a63a 7b3d f6c6 56bd
00000180: a836 d4bc 82bb 043e 407e 20bd fe28 e53c
00000190: 8125 1f3e 4832 523c 942e f13d 842b b5bd
000001a0: 470d d13c 43d2 dfbd a175 413c 6706 fdbc
000001b0: 85fc 1abd 3ae3 42bc 6c54 063d 8b1b 993d
000001c0: fab9 cbba 2143 6dbc b1f0 b6bc a733 a3bd
000001d0: 1b6d af3d b577 b2bc ee2b 3fbc b6f8 d2bc
000001e0: 5320 a7bc 3e6a 823d ea97 1ebd f411 973d
000001f0: d4b2 d33c 68ba 313d 3d75 e73c d0a7 cd3c
00000200: 8d93 98bd e909 3b3d c749 5dbd 8a96 cbbd
00000210: af7b 4abe 625f a6bc 572d 12bd 7d37 36bd
00000220: ea78 0b3d 513e 353e 62b6 233d f6ab d9bc
00000230: 6494 513d 434b b3bd bd1e 6abd d3a0 48bd
00000240: 969c abbd b08a 0b3e 010a 7f3d 0164 aebd
00000250: 0100 833d eb45 8b3d
-0.017331379 -0.033081595 -0.057466894 -0.020138783 0.006012376 0.022145677 -0.039683625 -0.08881172
-0.0061309766 -0.050620288 -0.00450286 -0.027536552 0.15472148 -0.026735118 0.03575212 0.039676864
-0.020949177 0.037693005 -0.067230634 0.036537174 0.07604086 -0.0125737805 -0.07270366 0.021737566
-0.012330536 -0.031885866 2.8667228e-05 -0.046806168 -0.01794088 -0.01233121 0.03306819 -0.0024064493
-0.0016146197 0.05463815 0.11383951 0.04606424 -0.022099167 -0.014184104 0.051124174 0.03896953
-0.021341005 0.033713613 -0.15153986 -0.027302688 0.06165777 0.12903133 0.025237665 0.026208725
0.07825505 0.0009646825 -0.02791465 0.17000623 0.15891545 0.06378661 -0.037692364 -0.011371581
-0.027361892 -0.009999914 -0.010878913 0.039029676 -0.03814362 -0.017034417 0.0027967445 -0.009966056
0.004209559 0.16612506 0.22791107 0.15453407 -0.12494364 -0.011409183 0.13753875 -0.016620368
-0.09520744 -0.023358287 0.040175363 0.051602043 0.019247223 -0.0831622 -0.007954784 0.1485357
-0.00052980223 -0.03807764 -0.090357944 0.016025312 0.009092291 -0.061595697 -0.023503937 -0.04940496
-0.009471623 0.06715341 -0.058936477 -0.0770958 -0.0077255773 -0.032907464 0.06133523 -0.052435838
-0.025904968 0.12962154 -0.0391829 0.027973648 0.1554165 0.012829371 0.11776462 -0.088461906
0.025519026 -0.10928776 0.01180783 -0.030886842 -0.037838478 -0.011894995 0.032795355 0.074759565
-0.0015543096 -0.014481337 -0.022331567 -0.07968836 0.08565732 -0.021785596 -0.0116681885 -0.02575336
-0.020401156 0.0636792 -0.038719095 0.07376471 0.025842108 0.04339066 0.028254146 0.025104433
-0.07450018 0.045663748 -0.054025438 -0.099408224 -0.19773744 -0.020309154 -0.03568777 -0.04448651
0.03405086 0.17699553 0.039968856 -0.026571255 0.051166907 -0.087545894 -0.05715822 -0.0489815
-0.08379476 0.13627124 0.0622654 -0.08515168 0.06396485 0.06800445

fc1.weight f4 [10, 9600]
00000000: 7053 9a3c 6e22 743c d536 f83b d595 2abc
00000010: 7e73 c8bb 8dc0 533c e5a0 ae3b 57a3 1f3a
00000020: c7f9 78ba 4271 7b39 ad89 bcbb 3f19 90bc
00000030: 784b 01ba 2286 243c 55ca 053c 9101 313c
00000040: e8d0 7dba b18f 8238 60b2 bfba 26d7 df3a
00000050: 6807 5fba ed39 a83c ffbe a33b 4c07 053c
00000060: cf6b aebb 434c 72bb 9d26 3c3c 795b a33b
00000070: 231a da3b c5bf 433b de6e 90bb 0514 e8bb
00000080: a26c d13b 62af 773c 1881 9a3c db3b 4e3c
00000090: 5279 423c 8fde 1dbb 17af d43b 4822 9cbb
000000a0: 3197 0d3c a043 0f3c 672e 60bc 8a02 69bc
000000b0: f393 5bbc 1eb4 dbbb 7302 c53b 2344 c0b8
000000c0: 7725 2dbb edbb 05bc 1efe 113b 4ee4 8e3b
000000d0: c4cf 1c3b c64e cc3b 9a9f 81bb 5a68 a73b
000000e0: 7a7b 9fbc e54b 50bb cdb4 193b a080 d83b
000000f0: 1c32 f43b 2c8d 29bc 7681 503b 7876 4dbc
00000100: c2b5 88bb 4b79 13bc 29aa 62bc 621f c1bc
00000110: 70ed c1bc a8b3 57bc a80b babc 26cf 5cbc
00000120: baf2 243c bab7 5dbb 84fc 583c fc82 0d3b
00000130: 23c1 20bc 700a 353b c485 c9ba 7c76 08ba
00000140: 9a43 4f3c de32 4e3c 8b11 ea3b 47a5 95bb
00000150: 36fa c4ba 9b31 a4bb e302 3cbc 5a46 fdbb
00000160: 1079 2b3c 15ef b93b 91ae 04bc 345c 75bb
00000170: 16e9 9dbc 929c 4bbc 4d70 0bbc 7a3b 93ba
00000180: b6d0 e7ba 2a46 803c 467e 04bc 8c32 b03a
00000190: f5c7 41bc 93ab 4ebc fc9b 54bc 4ad5 2cbc
000001a0: 6d5e 5fbb a36f 553c fe61 6e3a 62f7 9339
000001b0: 43b6 49ba b2b5 dcbb e579 42bc ccec efba
000001c0: e214 ffba fa5f 0f3c 2769 4a3c a881 c3bb
000001d0: 8320 2e3c dc28 3638 5256 373c ca65 ae39
000001e0: d510 f43b 20bc f8bb a9c0 15bc d311 193c
000001f0: 4d58 fe3a 1c26 083a 91b9 193b eb08 793c
00000200: bb9d 5b3c e622 893b a89c a0bb f630 c9bc
00000210: 9d26 cabc 1504 c8bc 050c 87ba 503a 09bc
00000220: 75a3 803b 8ca7 553c 1daa 223b e5a4 97ba
00000230: f876 b0bc f37d acbb f9cd c63b af44 0e3c
00000240: e91f 453b 486e 813c 3abe 353c d95f 7b3a
00000250: d66e 2d3c a7a3 0c3c 343a 813c d1f1 b53c
00000260: 72ab 3e3c 5af9 333b 9c1d 923a e515 373c
00000270: 689e 423c 8a02 a93c 2406 143d 89ae 873c
00000280: bb37 303c 2de8 ad3a 753c 3fbc e0c7 063c
00000290: e994 413c da6d c73c e1b8 fb3b dfe1 763c
000002a0: 923f 69bb d155 1abc 2f10 debc 0653 bbbc
000002b0: f312 5cbb 05bd 643b 792a 4bbc cef6 bebb
000002c0: d078 38bc 6852 413c 855d 66bc 1126 7bbb
000002d0: 6d32 283b 3687 d2bb ef69 89bc 71f0 ea3b
000002e0: 18fc 1a3c dba0 0dbb bac0 37bb 503b 633c
000002f0: 4348 9a3b 03d4 103a da82 923b a4a0 c73b
00000300: 8d15 3abc 6d17 343b 4f8f 053b 36cd d33b
00000310: 641a a8bb 0e38 22bc b0d0 613b a869 373b
00000320: dd37 4a3c 52fc 163c b909 9739 009e dd39
00000330: 932e d8bb b74b c73a f509 393c d55f 173c
00000340: ee85 83bb 5d64 b03a 7f21 b2bb 940f 92bb
00000350: 3d7c 24bc 4b2b c03b ed43 f5ba eaff 4dba
00000360: d73c 683b a101 823c 9c59 deba fad5 44bc
00000370: 93c4 b03b 046b bfbb e0a1 443c 7beb c3b9
00000380: c0e0 363c 592c 163c 106e 7a3b a0a3 4a3b
00000390: 146c 30bb 7580 1bbc 6e60 f93a f48e 9339
000003a0: 1b24 4a3c 9ca3 333c 3486 a4bb 839d 373b
000003b0: 179f b9ba 6542 383a 4a3f 04bc 2987 0b3c
000003c0: 2df5 623c af5b c9ba dc58 8c39 41cf afba
000003d0: 7999 13bc 2498 203c 41b1 693a f2c1 f73b
000003e0: c60a 413c f6d5 793c 357b 813c 3712 ae3c
000003f0: 4c07 613c 69d0 093c cfff 553b 9c8e c43b
0.018838614 0.014900787 0.007574896 -0.010411699 -0.0061172834 0.012924326 0.0053292387 0.0006089708
-0.0009497669 0.00023979417 -0.005753717 -0.017590163 -0.0004932205 0.010041745 0.0081659155 0.010803596
-0.00096823135 6.225648e-05 -0.0014625303 0.0017077669 -0.00085078785 0.020535434 0.0049971337 0.0081194155
-0.0053229104 -0.0036971725 0.0114838155 0.0049852696 0.006655948 0.0029868942 -0.0044077476 -0.0070824646
0.006391124 0.015117498 0.018860385 0.012587513 0.011869745 -0.0024088954 0.006490599 -0.004764829
0.008642004 0.00874415 -0.013682938 -0.014221797 -0.013401973 -0.0067048213 0.006012255 -9.167965e-05
-0.0026420036 -0.008162481 0.002227671 0.004360712 0.002392755 0.0062349765 -0.0039557936 0.005108875
-0.019468058 -0.0031783518 0.0023453713 0.00660713 0.0074522626 -0.010348599 0.0031815446 -0.012540452
-0.004172058 -0.0090010865 -0.013834515 -0.023574535 -0.02367279 -0.013165392 -0.022710636 -0.013477122
0.010067636 -0.0033831433 0.013243798 0.0021592965 -0.009811672 0.002762463 -0.0015374948 -0.0005205644
0.012650395 0.01258537 0.0071432046 -0.0045668217 -0.0015028182 -0.0050107962 -0.011475298 -0.007729334
0.010465875 0.0056742528 -0.0080982605 -0.003743899 -0.019276183 -0.012427466 -0.008510661 -0.0011232935
-0.0017686102 0.015658457 -0.008086747 0.0013442799 -0.011827459 -0.012614149 -0.012976643 -0.010548899
-0.0034083382 0.013027105 0.00090935815 0.0002822234 -0.00076947006 -0.006735527 -0.011869882 -0.0018304824
-0.001946118 0.00875091 0.012354172 -0.005966384 0.010627869 4.3430235e-05 0.011190014 0.00033263705
0.0074482956 -0.0075907856 -0.009140172 0.0093426285 0.0019404978 0.0005193667 0.0023456553 0.01519988
0.013404305 0.0041850684 -0.0049014874 -0.02455948 -0.024676615 -0.024416009 -0.0010303265 -0.008375719
0.0039257356 0.013040435 0.0024820634 -0.0011569528 -0.021541104 -0.0052640378 0.0060670343 0.008683368
0.0030078834 0.015799657 0.011092717 0.00095891726 0.010585507 0.00858394 0.015774824 0.022210034
0.011637555 0.0027461858 0.001114774 0.011174654 0.011878587 0.020631094 0.03613867 0.016562717
0.010755475 0.0013268046 -0.011672129 0.008226365 0.011815288 0.024344373 0.0076819514 0.0150685
-0.003559087 -0.009419874 -0.027107326 -0.022866737 -0.003358063 0.0034902703 -0.012400263 -0.0058277613
-0.011259273 0.011799432 -0.014060383 -0.003832225 0.0025664822 -0.00642481 -0.016774146 0.007169776
0.009459518 -0.002161077 -0.0028038458 0.013869122 0.0047083213 0.0005524756 0.004471165 0.006092148
-0.011357677 0.0027479783 0.0020379608 0.006463672 -0.005130099 -0.00990106 0.0034456663 0.002798656
0.01234242 0.009215431 0.00028808208 0.00042270124 -0.006597349 0.001520506 0.011293878 0.009239157
-0.0040137684 0.0013457645 -0.005436122 -0.0044574235 -0.010039386 0.005864536 -0.001871226 -0.00078582636
0.0035436654 0.015869917 -0.0016963962 -0.012013907 0.005394527 -0.0058416147 0.012001485 -0.00037368745
0.011161983 0.009165847 0.0038212575 0.0030920282 -0.0026919888 -0.009491076 0.0019025931 0.00028144533
0.01233771 0.0109643005 -0.005020881 0.0028017468 -0.0014161792 0.00070289365 -0.00807173 0.008516111
0.0138524 -0.0015362407 0.00026769086 -0.0013413207 -0.009008759 0.009801898 0.00089146575 0.007560962
0.011782354 0.015248766 0.01580582 0.02124892 0.01373465 0.008411505 0.0032653695 0.0059984457

fc1.bias f4 [10]
00000000: cbfd e8ba 10ff 14be 46d9 423d e784 22bc
00000010: c34a 033e c163 cabb 1644 9a3d 6815 d93b
00000020: 3159 8d3d fd4a 2fbe
-0.0017775832 -0.14550424 0.04757049 -0.009919382 0.12821488 -0.0061764424 0.075325176 0.0066248663
0.069017775 -0.1711845
