logs/best_epoch_5.ckpt (torch, 676783 bytes, 8 tensors)

conv1.weight f4 [10, 3, 3, 3]
000000 13 2f ea bc 1c 78 d7 3d 57 98 e8 3d 59 34 29 3d
       -0.0285869 0.10520956 0.113571815 0.04130969
000010 5b 6e 1c be e6 48 37 bd 53 c2 46 bd ca d2 08 be
       -0.15276472 -0.044747256 -0.048525166 -0.1336166
000020 0a 8d fe 3b 2e c7 cf bc b2 60 a6 bd 28 77 03 be
       0.007768278 -0.025363531 -0.08123912 -0.12838423
000030 53 b6 43 be 3e 41 88 3d 03 57 15 3d af d5 33 be
       -0.1911252 0.06653069 0.036459934 -0.17561983
000040 cb 00 75 bc e6 64 8f bc 31 9c b8 bd 25 14 d2 bd
       -0.014953802 -0.017504167 -0.09014166 -0.102577485
000050 24 59 10 bc 5c 98 ed 3c 32 52 d4 bd 0e 0c 31 3e
       -0.008810315 0.029003315 -0.1036724 0.17289755
000060 19 2f d9 3d 7d 11 29 3e 6e 56 26 bd 3c e5 b1 bb
       0.10604686 0.16510577 -0.04060977 -0.005428938
000070 71 3c 6e bd bc 48 ac bd b1 75 a4 be c5 01 af be
       -0.05816311 -0.084123105 -0.3212104 -0.34181038
000080 ed da 14 be 1d 58 c5 be 41 84 80 be b9 94 ba be
       -0.14536639 -0.38543788 -0.25100902 -0.3644159
000090 22 f5 27 3d ce bf 70 bd 83 61 84 be bf df ad 3c
       0.04100526 -0.05877667 -0.25855646 0.021224855
0000a0 d0 2d 20 be 9e 54 d0 3b 98 3a 91 3d f4 00 3b be
       -0.15642476 0.0063577434 0.07091254 -0.18262082
0000b0 7e 1e b6 bc 29 31 9e 3e 18 c7 c7 3e 8d cf b0 3e
       -0.022231337 0.3089688 0.39019084 0.3453335
0000c0 fe 28 06 3e 1b 8e a9 3e 5a 63 a1 3e 7f f9 91 3e
       0.13101575 0.3311623 0.31521112 0.28510663
0000d0 90 a9 a0 3e 44 95 89 3e 61 e1 88 3e a8 ad 1c 3f
       0.31379366 0.26871693 0.2673445 0.6120248
0000e0 da c5 9c 3e c0 f9 03 bc fd c2 d6 bc c4 44 a3 3e
       0.306197 -0.0080551505 -0.026216025 0.31888402
0000f0 26 8e 74 be 49 7c a3 be 66 05 09 bb b1 3e 0f 3e
       -0.2388235 -0.3193076 -0.0020907759 0.13988759
000100 b6 34 da 3d f7 4f 59 3e 18 ea ad be 1d 28 25 bd
       0.10654585 0.2122191 -0.33967662 -0.040321458
000110 b9 c6 45 3d 02 6f 07 bf fb eb 32 be bc 4f 08 be
       0.04828522 -0.5290376 -0.17472832 -0.13311666
000120 f7 92 fd 3e b8 2a 41 3f 85 61 11 3f 43 8d e4 3e
       0.49526188 0.7545581 0.5678943 0.44639024
000130 b5 b7 cf 3e a9 d5 0d 3f aa bb 24 bd 72 27 4c 3e
       0.40569845 0.55404145 -0.040218033 0.19936922
000140 2b 7d a4 3d b1 3d 35 3f 68 ab 2d 3f d0 be 31 3f
       0.080316864 0.7079726 0.6783967 0.6943178
000150 ca 0a 0a 3f 8b 7a 40 3f b0 4c 28 3f 07 01 24 3e
       0.5392271 0.75186986 0.65742016 0.16016017
000160 05 92 ec 3d 3c 4f e2 3e 5f 99 99 bd 26 f8 f2 bd
       0.115512885 0.44201076 -0.07499956 -0.11863737
000170 47 d7 05 be 8d b5 b2 be 10 2c 90 be 1e 6f 60 be
       -0.13070403 -0.34904137 -0.28158617 -0.21917388
000180 8d 35 e1 be e5 70 1a bf 7d 0b c8 be ac de 08 be
       -0.43986169 -0.60328513 -0.39071265 -0.13366193
000190 74 1c 64 bd fe 1c b7 3d 9e 35 30 be 9a b6 7b be
       -0.055691198 0.08941077 -0.17207953 -0.24581376
0001a0 80 34 93 be 0e a2 48 be 4e d4 e8 bd a0 e0 8e be
       -0.28750992 -0.19593069 -0.11368619 -0.2790575
0001b0 d5 12 21 3f 6d 44 f2 3e e2 aa 01 3e 6d b8 80 3f
       0.6291936 0.4731783 0.12662843 1.0056282
0001c0 3c 30 f3 3e 62 69 d5 bc ca de 2a 3f 8c 7b e4 3e
       0.47497737 -0.026051227 0.667462 0.4462551
0001d0 4f b1 7e be 24 ac 69 be 1f 3b 39 bf e3 68 67 bf
       -0.24872325 -0.22819573 -0.72355837 -0.9039442
0001e0 b3 99 32 3e ec 78 c4 be ef 86 4a bf 95 53 5a bc
       0.17441444 -0.38373506 -0.7911214 -0.013325592
0001f0 f6 96 10 bf 6d 4e 4b bf 73 e9 0f 3f c7 8d b0 be
       -0.5648035 -0.79416543 0.5621559 -0.34483168
000200 c2 4b a9 be 4b 4e 35 3f e2 1a 9b bd 25 4a 2b bf
       -0.3306561 0.7082259 -0.07573487 -0.6691001
000210 2e 6f da 3e 13 10 24 3e 94 9d fe be e5 ea 12 3f
       0.42662948 0.16021757 -0.49729598 0.5738967
000220 b4 e0 45 3f 19 0a 2f 3f a9 3a 05 bf de f3 a9 be
       0.77295995 0.6837478 -0.52042633 -0.33193868
000230 6b 32 ff be 00 fc df be 56 8d 20 bf 7d b6 09 bf
       -0.49843153 -0.43746948 -0.6271566 -0.5379408
000240 96 ea 05 3f c9 06 64 3f 6c 1a 17 3f ba 1a b9 bd
       0.52311075 0.89072853 0.5902469 -0.09038301
000250 23 7e 86 be 16 34 93 be 8e a5 d8 be f3 fd 81 bf
       -0.2626811 -0.28750676 -0.42313808 -1.0155624
000260 d3 c7 3e bf 90 1f 3d 3f be 89 84 3f 3d b9 fd 3e
       -0.7452366 0.73876286 1.0354536 0.49555388
000270 eb e0 3c 3d c5 4b 97 be 44 81 f8 bd c3 12 39 be
       0.046112936 -0.29549995 -0.121340305 -0.18073563
000280 f7 5c 09 bf a0 5e 08 bf a2 a2 7a be 63 95 66 3e
       -0.5365748 -0.53269386 -0.24476102 0.22517924
000290 00 b1 3f be ed 8a a0 be 9c f9 1e be 4e 2f 4b 3e
       -0.18719864 -0.31355992 -0.15524906 0.19842264
0002a0 82 03 28 bf 03 5c 76 be 31 26 f2 3e 06 f1 4c 3e
       -0.6563035 -0.24058537 0.47294763 0.20013818
0002b0 ec 78 19 3f a4 80 9b 3e 1d 33 ac be 97 f3 a9 3e
       0.5995014 0.30371583 -0.33632746 0.33193657
0002c0 a2 06 21 3f ef 49 3e be c4 fc 77 3e 54 cd 30 3f
       0.62900746 -0.18582891 0.24217516 0.69063306
0002d0 a6 a0 3a be d3 83 25 bd 87 bb a7 be 9d 55 85 be
       -0.18225345 -0.04040892 -0.3276026 -0.2604188
0002e0 09 ed de bd 85 1c ae bd 84 e1 11 bf 3b 5f fd bd
       -0.108850546 -0.085015334 -0.56984735 -0.123716794
0002f0 5a dd 8e 3e 12 92 86 3d f0 d3 36 be dd 5f 2f be
       0.27903253 0.065708295 -0.17854285 -0.17126413
000300 0e 41 91 3d e2 a1 2e be e3 e0 89 be 00 2c 10 bd
       0.07092486 -0.17053941 -0.26929387 -0.03519821
000310 02 b5 9f bc 97 ed 89 bd 64 59 39 bd 5f f4 1d 3d
       -0.019495491 -0.0673477 -0.045251265 0.03856313
000320 6f eb 1d be 20 c3 9c 3d 56 a1 17 be d3 d1 0a 3e
       -0.15421842 0.07654405 -0.14807639 0.13556604
000330 ca 4f 57 be 54 ae 9a 3d bf 56 3c be e3 c5 f7 bd
       -0.21026531 0.07552782 -0.18392466 -0.12098291
000340 5b 67 1f 3d 50 b8 ee 3b e4 57 84 3d 40 35 2b 3e
       0.038916927 0.0072851554 0.06462076 0.16719532
000350 f3 ea 72 3e e5 88 01 3e 74 1b 43 3e 20 39 60 3e
       0.23722439 0.12649877 0.19053441 0.21896791
000360 35 be 59 3e 83 ba 01 3f 52 32 de 3e 45 08 93 3e
       0.21263964 0.5067522 0.43397766 0.28717247
000370 fa bc 8d 3e 4d 27 26 3f 4d 02 84 bd 34 0a 4a 3e
       0.2768324 0.6490372 -0.06445751 0.19730455
000380 3c 3d 03 3f 3d a7 1e 3e 83 43 f5 3d 13 4d 0d 3f
       0.5126531 0.15493484 0.119757675 0.5519573
000390 bc 1d 84 3e 1d 77 ad 3e 0a 75 00 3f 05 e6 a2 bd
       0.25803936 0.3387994 0.5017859 -0.07954029
0003a0 eb e4 85 3e 46 d9 3a 3f f9 fb 43 bf bf 6a 60 bf
       0.26151213 0.7298778 -0.76556355 -0.8766288
0003b0 50 c2 cd be ee 9e 61 bf e7 ce 3d bf 96 40 20 bf
       -0.4018731 -0.8813313 -0.7414383 -0.6259855
0003c0 a6 29 3e bf dc e4 64 bf 4c 80 09 bf 2e 70 a0 be
       -0.742823 -0.8941171 -0.5371139 -0.31335586
0003d0 b7 a2 2d bd 6f d7 02 3f d3 50 14 bf cf 44 ae bd
       -0.042391505 0.51109976 -0.5793583 -0.08509218
0003e0 67 b5 2b 3f d6 9e 03 bf 14 69 84 bd db f4 11 3f
       0.67073673 -0.5141424 -0.064653546 0.57014245
0003f0 8d f3 0d bf 7e 1a c6 be d9 b7 cd 3e a3 22 21 bf
       -0.55449754 -0.38692087 0.40179327 -0.62943476

conv1.bias f4 [10]
000000 47 e6 ab bd 87 9a 05 be bd d5 8d bf 00 fa 35 be
       -0.08393531 -0.13047229 -1.1080853 -0.17771149
000010 b8 40 e1 3e 34 d6 2d 3f 5d f4 a4 3d 0e 3e b5 be
       0.4399469 0.67904973 0.08054421 -0.35398906
000020 a1 8e 99 3e bc de 5e 3e
       0.2999163 0.21764654

conv2.weight f4 [50, 10, 3, 3]
000000 e3 b6 79 bd 12 63 43 3d 82 83 96 3d 77 a6 bb bd
       -0.06096543 0.047701903 0.07349302 -0.0916261
000010 3c 45 d0 3d 6c a3 0e 3d 31 a0 b9 bc 38 0a b8 3c
       0.101694554 0.03482382 -0.022659393 0.02246581
000020 10 37 b1 bd 2e 4e c9 3d 0b fa ca bd 54 b4 aa 3d
       -0.086530805 0.09829365 -0.09910973 0.08335176
000030 2f 93 b1 bc b3 2e b7 3d 1c ff 03 3a 04 98 f4 3b
       -0.021676628 0.08944454 0.00050352677 0.0074644107
000040 c3 d3 c6 3d 84 cf e2 3d 47 3d f9 bd 2e 2c b0 bd
       0.09708359 0.11074737 -0.12169891 -0.086021766
000050 4d 51 4c be 3b 4a 06 3e fd 7c b2 3d 73 2f a1 3c
       -0.19952889 0.13114254 0.08715246 0.019675946
000060 62 78 b8 3c 32 26 df 3d 10 d6 e6 3c ea 98 68 3e
       0.02251834 0.10895957 0.028178245 0.22714582
000070 32 5d 32 3e cd a1 d0 3d 01 e7 14 3d 1a a6 0e 3c
       0.17418364 0.10187111 0.036353115 0.008706594
000080 d7 16 0d be 4a 4d 33 be e9 f7 32 bd 49 a3 75 3b
       -0.13778244 -0.17509952 -0.043693457 0.0037481359
000090 a9 45 a6 3e 1a 7f 87 3e 40 1a 50 3d 53 b9 80 bc
       0.3247502 0.26464158 0.050806284 -0.01571337
0000a0 a0 a0 46 bd ec 3b 03 be ae 3a 50 be 4e ff 3c be
       -0.048493028 -0.12815827 -0.20334885 -0.18456766
0000b0 a7 ba 97 bd 10 87 83 3c 62 1e fb 3d 4f 28 ae bd
       -0.07408648 0.016055614 0.122616544 -0.08503782
0000c0 c0 18 bc bd 9a a7 cd bd 2e b4 c6 3d c4 81 30 bc
       -0.09184408 -0.10041733 0.09702335 -0.010773126
0000d0 3d ff b4 3d 8e 50 b5 3b d6 17 3a 3d 66 34 8c bc
       0.08837745 0.0055332845 0.045432888 -0.01711483
0000e0 a4 c8 c9 3d c8 08 50 3d 5e 18 3f bd 30 45 f7 3b
       0.09852722 0.050789624 -0.046654098 0.0075460896
0000f0 f6 43 48 bd b0 97 fd bd ea 44 b2 3b 06 b4 19 bd
       -0.048892938 -0.12382448 0.005440344 -0.0375252
000100 a7 0a b3 3b 2e 4d 9b 3d fd 43 20 bd c6 c1 b7 bd
       0.0054639163 0.0758308 -0.03912734 -0.08972506
000110 4a 9e d0 3d e0 de 8b bd 72 3b f7 bb 43 78 a8 bd
       0.10186441 -0.068296194 -0.007544928 -0.08226063
000120 d3 d5 3e 3e e6 11 75 3e 0d 3d c7 3d d3 c7 23 be
       0.18636255 0.23932609 0.097284414 -0.15994196
000130 4f 0a 09 bc df 5d 32 bd 65 3d 95 be 3a 84 7b be
       -0.008364274 -0.043546554 -0.29148403 -0.24562159
000140 80 7d 33 be 29 5b 1e bd 3d 1c 2d 3c 09 2f 86 3d
       -0.17528343 -0.038661156 0.010565815 0.0655194
000150 8b 97 0b 3e 30 32 9a 3d 4b b9 95 bc e8 84 81 bc
       0.13632028 0.07529104 -0.018276831 -0.015810445
000160 71 a6 92 3b 60 47 06 be 04 5b cf bd 5c 0e a0 3c
       0.004475408 -0.13113165 -0.10124782 0.019538097
000170 be 10 ba 3d 98 38 20 bd f5 9d d0 3d 39 7a 0a 3d
       0.090852246 -0.039116472 0.10186378 0.033807967
000180 9d a2 87 bc 22 dd b2 bc a1 0a a8 3d 20 58 9a bd
       -0.016557032 -0.02183396 0.08205152 -0.0753634
000190 ab a7 df bd 15 6b c7 3d ee d4 a2 3d 5c e1 2c 3d
       -0.10920652 0.09737221 0.07950769 0.042207107
0001a0 73 e3 3c 3c 10 86 4c bd 65 3d 97 bd 9f bc 86 bc
       0.0115288375 -0.04993254 -0.07384757 -0.016447363
0001b0 d5 c7 46 3e 18 71 6a be 83 f4 ba 3c cd 17 4b 3e
       0.19412167 -0.22894704 0.02282167 0.19833298
0001c0 9d df 5f 3e ca 9e 5f be d0 da 9c be f0 8f 60 3e
       0.21862645 -0.21837917 -0.3063569 0.21929908
0001d0 56 1b a1 bd 8d c9 98 bd 3e db 80 be b2 b1 0f be
       -0.07866542 -0.07460318 -0.2516727 -0.14032629
0001e0 49 9c 85 3e 69 d1 01 3e 20 22 51 bd bc ae 2f bd
       0.260958 0.1267754 -0.051057935 -0.04289125
0001f0 ff af d0 3d 72 5a af 3d cc f5 36 bd 4e 72 c2 3d
       0.101898186 0.08562173 -0.044668004 0.09494458
000200 b9 46 10 be 5b 3f 5e be 7b e3 f9 3c 97 53 30 3e
       -0.14089479 -0.21703856 0.030503979 0.17219387
000210 7f 6c bc 3e 39 39 55 be ce c1 c4 3b bb e8 fd bd
       0.36801526 -0.2082261 0.0060045486 -0.123979054
000220 08 77 59 be f7 e2 76 3e 16 f7 d7 3e f7 68 95 be
       -0.21236813 0.24110018 0.421807 -0.29181644
000230 02 88 87 be bc be 93 3c a6 e7 f4 3e 94 f6 11 be
       -0.26470953 0.018035285 0.47832984 -0.14254218
000240 f6 47 0e 3e a7 0b 17 be 52 13 24 bc 91 32 1e 3e
       0.13894638 -0.14750539 -0.010014372 0.15448977
000250 9e 35 3b 3e fd bc 5e bd f1 3e cd bd b7 6a 5f 3e
       0.18282172 -0.054379452 -0.10021771 0.21818052
000260 90 4c e4 3d eb a8 ab 3d 04 1d 0c bd 47 03 2d 3c
       0.11147416 0.08381828 -0.03420736 0.010559863
000270 26 79 b4 3c 7f 41 ad bc ae ea 0c 3d ea 99 8c bd
       0.022030424 -0.021149395 0.034403495 -0.06865294
000280 e2 44 8f bd 1d 7c 46 3d 64 74 30 bd b1 e4 8d 3c
       -0.0699556 0.048458207 -0.04307975 0.017320963
000290 4c d6 7c 3d cb 4c 77 3e 24 b9 42 3e 34 45 3a bd
       0.061727807 0.24150388 0.19015938 -0.045476153
0002a0 3b 11 a5 be 47 2f a7 3d 85 e8 8c bd e1 b6 09 be
       -0.32239708 0.08163314 -0.06880287 -0.13448669
0002b0 28 83 73 be 1a 03 01 3e e2 5d 77 3e 4d 0f f9 bd
       -0.23780501 0.1259884 0.24156907 -0.121611215
0002c0 ab bc b8 bd 24 fd d7 bc 0c d9 9d 3e 23 fa 87 bd
       -0.090203606 -0.026365824 0.30829656 -0.06639507
0002d0 b0 41 b9 3d 99 fc 07 3d e8 f2 43 3d 06 80 a5 bd
       0.09045732 0.03319988 0.047839075 -0.08081059
0002e0 4a 07 e7 3c c3 01 f6 3c 90 38 d9 bb 78 b9 97 bd
       0.028201718 0.030030137 -0.006629057 -0.07408422
0002f0 44 86 38 3d 84 5e 5a bd 37 0a 78 bc 4c 11 f9 bd
       0.04504992 -0.053312793 -0.015139154 -0.12161502
000300 4d 86 d1 bd 69 25 4b bd 9c fa f8 3c 4e e6 e7 bd
       -0.10230694 -0.049596224 0.030392937 -0.11323224
000310 5c a6 eb bd 4e 3d fc bd 92 12 b3 bc 74 11 09 3e
       -0.1150634 -0.123163804 -0.021859441 0.13385564
000320 31 ec b2 3d 1b 39 c7 bd d5 db cf bd 10 08 04 be
       0.08736456 -0.09727689 -0.101493515 -0.128937
000330 4b fb 12 bd 1e 03 21 3d 99 27 5e 3b df 84 37 bd
       -0.035884183 0.039309613 0.0033898114 -0.04480445
000340 9f a3 9f 3d db 8a ad 3d 47 21 e5 bb 74 3b cd bd
       0.0779488 0.0847375 -0.0069924924 -0.100211054
000350 0c 34 4a 3d 89 35 bc 3d 93 e3 fd 3c 75 54 d3 3d
       0.049366042 0.091898985 0.030992305 0.10318843
000360 78 f6 02 bd 55 c7 05 be 77 08 7f bd c1 f4 5f 3d
       -0.031973332 -0.1306432 -0.062263932 0.054676775
000370 fe 41 68 bd 2e 84 a1 3b 78 61 fc bd bb ed 01 be
       -0.05670356 0.004929087 -0.12323278 -0.12688343
000380 c3 a9 10 bd d2 ca 88 3d 86 de 90 3e 01 83 66 3e
       -0.035318147 0.0667931 0.28294772 0.22510912
000390 17 a7 5e be 19 97 bc bd 77 24 64 3d 3e a5 0c 3e
       -0.21743427 -0.09208507 0.055698838 0.1373491
0003a0 82 c4 d3 bc 8b b8 9e bd 60 74 98 bd a2 c6 bc 3c
       -0.025850538 -0.077500425 -0.07444072 0.023043934
0003b0 5a f8 44 3d be 07 85 bd a3 e4 42 bd 17 b8 7b bd
       0.04808841 -0.06495617 -0.047581326 -0.06145486
0003c0 d2 27 d7 bc 66 d2 53 bd 54 ff 95 bd 41 c8 22 bc
       -0.026264105 -0.051714323 -0.073240906 -0.00993544
0003d0 25 21 e7 3c 58 a4 38 3c b8 47 36 bc 99 cb 88 bb
       0.028214047 0.011269651 -0.0111254975 -0.0041746614
0003e0 36 a1 36 3d 2c 93 08 3d 52 63 95 3d c0 7b 91 3d
       0.044587336 0.03334348 0.072943345 0.071036816
0003f0 10 f8 0e bd a6 e0 d6 3d 88 1c 85 bc cb 24 06 3d
       -0.03490454 0.10492067 -0.016248956 0.032749932

conv2.bias f4 [50]
000000 8e 01 90 be 45 e9 0f bf 26 f9 76 bd fc 1e e0 bd
       -0.28126186 -0.56215316 -0.0602962 -0.1094341
000010 bc 4c 5d 3e de c9 93 be 61 dc d6 3c 75 3c 97 be
       0.21611303 -0.2886495 0.026228132 -0.29538313
000020 6a a8 0b be 3f 8c 78 be 5e 0d 4d be 32 c7 95 be
       -0.13638464 -0.2427225 -0.2002463 -0.29253536
000030 aa 4f 8e 3e a3 fc 35 3e b4 c7 97 3d be ab b7 bd
       0.27795154 0.17772155 0.07411137 -0.08968304
000040 ae e8 80 be 86 34 85 3e d5 1e b9 bd 6b ca 94 be
       -0.2517752 0.26016635 -0.09039084 -0.29060683
000050 9d e7 b8 3d 2d 20 17 3e 50 b4 52 be fc ba 97 be
       0.09028552 0.14758368 -0.20576596 -0.29634845
000060 d2 b5 86 bd ef 51 c4 bd 37 95 85 3e 5c 22 95 be
       -0.06577648 -0.0958594 0.26090404 -0.29127777
000070 16 36 2e be 2d 5b 79 be dc 73 1a bd 12 4e 59 be
       -0.1701282 -0.24351187 -0.03770815 -0.21221188
000080 a6 c2 34 3e 7a 0c 74 3e b5 34 90 be 9a c2 f6 be
       0.17652377 0.23832884 -0.28165212 -0.48195344
000090 f4 aa 6b bd 5f 29 f9 bd 34 a5 8c be bc 2d 29 bd
       -0.05753608 -0.12166094 -0.2746979 -0.04130338
0000a0 d1 7a 82 3d 7a 77 52 be 62 e0 96 bc 14 55 3b be
       0.063710816 -0.20553389 -0.018417541 -0.18294173
0000b0 1a 5b 39 bd 07 3d 6f 3e 14 0b 05 3f 79 d5 36 3e
       -0.045252897 0.23363124 0.5197003 0.17854871
0000c0 da 2e 30 3d cb 64 b4 3d
       0.04301343 0.08808287

conv3.weight f4 [150, 50, 3, 3]
000000 c1 46 5b bb be 88 1b bd 84 a0 88 bc 4b 55 5d 3c
       -0.003345892 -0.037972204 -0.016678102 0.013509105
000010 ee 35 64 ba fc c3 b4 38 0b 6d 25 3c e0 dc 82 3b
       -0.0008705546 8.619574e-05 0.010096799 0.0039936155
000020 67 36 2e 3b f1 b8 5b 3c dd 72 10 bc aa 84 2c bd
       0.002658272 0.013410793 -0.008816448 -0.042118706
000030 85 6a 5f bd 29 20 17 bd ed 73 0b 3d 3f ad 1f 3d
       -0.054544944 -0.036895905 0.034046102 0.03898358
000040 f5 52 36 bb 37 c1 ea bc ee db f3 3b 8e f5 28 3d
       -0.0027820442 -0.028656585 0.007441989 0.041249804
000050 83 8e 29 3c b6 40 ab 3c 0b 74 60 3c 90 95 6d bd
       0.010348919 0.02090488 0.013699542 -0.058003962
000060 e4 62 c5 bc 31 0f 54 3c ab 5f 56 3d bf 40 86 bc
       -0.024095006 0.012943075 0.05233733 -0.016388295
000070 a0 0e bb 3c 00 c6 cc 3c 42 3f 8a 3d 5e b3 66 3c
       0.022834122 0.024996758 0.06750347 0.01408085
000080 84 92 33 3d 5a ce 74 bc 00 95 d4 3c 35 85 bf bb
       0.0438409 -0.014941776 0.025949955 -0.005844737
000090 d5 2b 1d bd 1d ca 99 bd 8a 58 b8 bd 28 9a 6e 3d
       -0.03837188 -0.07509253 -0.090012625 0.058252484
0000a0 62 56 b6 3c 83 96 a4 3c 67 e4 84 bc cf 1f 25 bd
       0.022257987 0.0200913 -0.016222192 -0.04031354
0000b0 36 f1 04 bd 53 10 37 3d a1 62 3f bd 7d b2 24 bc
       -0.0324566 0.044693302 -0.04672492 -0.010052321
0000c0 8d 0c 78 bc 00 5d bc ba a6 e8 10 3c 1a 2e 9f ba
       -0.015139711 -0.0014370978 0.00884453 -0.0012144477
0000d0 1d 4d 78 bd 1a 49 dd bc 85 cf 3a bc 8c a1 99 3d
       -0.060620416 -0.027012397 -0.011402016 0.07501516
0000e0 b5 e5 24 3d dd af 0f bc d2 8d 7c bd 4b 8b 0c bd
       0.04025813 -0.008769956 -0.061658688 -0.034312528
0000f0 bd aa c5 3c e5 a0 3e 3d 4f 5e 4b bd c2 8e 18 3d
       0.024129266 0.04654016 -0.049650487 0.03724552
000100 d3 d1 4b bc d4 4f 53 bd 25 30 a9 bb bd 03 8a bc
       -0.012440163 -0.051589802 -0.00516321 -0.016847486
000110 0b 54 98 bd 65 23 2f bd 21 12 18 b9 c2 69 6a bc
       -0.07437905 -0.042758364 -0.00014502603 -0.014307441
000120 41 d8 f2 3b f6 60 0f 3d 67 b2 a6 ba 6e ae dc 3a
       0.0074110334 0.03500458 -0.0012717963 0.0016836652
000130 2a 05 1d bd 11 01 ca bc 78 9d 6e bc f6 fa 88 3b
       -0.038335003 -0.024658712 -0.014563911 0.0041803075
000140 72 2b 61 bd 75 45 75 3d c1 1d 05 3c 90 e3 f9 3b
       -0.054973073 0.059880693 0.00812477 0.0076260045
000150 5d 69 4c b6 e9 70 f5 3c 76 fd 2f 3d b7 c4 64 bc
       -3.0459698e-06 0.029961066 0.04296633 -0.013962916
000160 a2 76 04 3d 52 49 17 bd 9c bc 13 3c f5 d1 f8 bc
       0.0323397 -0.036935158 0.009017136 -0.030373553
000170 03 14 5d bd d2 e6 b6 bb 31 1d 9f bb 65 34 31 3c
       -0.053974163 -0.005581715 -0.004855775 0.0108157145
000180 ea cd 55 3d 0a 91 f1 bc 3c e0 02 bc 70 2b 1f 3d
       0.052198328 -0.029488105 -0.007988032 0.038859785
000190 af a9 f0 bc 02 1c ac b9 ab 98 33 3b 5e dd 2b bd
       -0.029377786 -0.00032827264 0.002740423 -0.04195916
0001a0 17 9b 40 ba 6e 63 98 3b d7 05 eb 3c 54 4f b5 bc
       -0.0007347329 0.004650525 0.028689308 -0.022132553
0001b0 ac 1b 4f bd e4 25 71 bc 2b 9c 86 bc a1 31 35 bd
       -0.0505635 -0.0147185065 -0.016431889 -0.044236783
0001c0 a9 80 0c bd 88 6d 1a bd 5b 60 12 bd 12 5b 82 3d
       -0.034302387 -0.037702113 -0.035736423 0.063650265
0001d0 25 9b 86 3d 86 7a c9 bc 1c 97 93 bb c0 c4 16 bd
       0.0657256 -0.024594557 -0.0045040976 -0.03680873
0001e0 79 3c 64 bc 47 6d 38 3d 83 b5 53 3d d2 71 c2 3c
       -0.013930433 0.04502609 0.051686775 0.023735914
0001f0 ed c3 a2 bc e3 98 9c 3c 43 30 00 3c 5d cd 10 3c
       -0.019868815 0.01911587 0.0078240065 0.008838025
000200 d0 5c 72 3b 27 1e 4a 3c c9 09 84 3c 34 be c9 3b
       0.003698159 0.01233629 0.016117947 0.006156707
000210 bd c1 36 bc 21 62 02 bd 20 0d 24 bc dc 3b a1 bc
       -0.011154589 -0.031831864 -0.010012895 -0.019681863
000220 97 79 15 3d e8 aa c5 bb e2 24 a2 3c 85 57 80 3c
       0.03649291 -0.0060323365 0.019792978 0.015666733
000230 4a 52 c6 bc 22 d6 ec bc 22 6c 24 bd 54 b1 58 3c
       -0.02420916 -0.0289107 -0.040142186 0.013225872
000240 cd ca b1 bb 34 ad 04 bd 28 62 93 3c 06 57 dd bc
       -0.005425787 -0.032391742 0.01799114 -0.027019035
000250 6f fd 3b bd 04 dc b8 bd c7 63 08 bd 9a 3a cd 3c
       -0.04589599 -0.0902634 -0.03329828 0.025052357
000260 72 c7 77 bd 62 d4 9a 3c 60 4f b6 3d 32 d3 99 3d
       -0.06049294 0.0189001 0.08901858 0.075109854
000270 9a d0 03 3d 87 29 49 3d f3 4e 66 3c 98 bd 3a bd
       0.03218136 0.04911187 0.014056909 -0.045590967
000280 00 e0 25 bc db 74 a4 bd df b8 7f bb 47 0c 26 bd
       -0.010124207 -0.08030101 -0.0039020104 -0.040539052
000290 4b 49 e6 3c da dd f2 3c c4 86 11 bd a1 20 60 bb
       0.02811112 0.029646803 -0.035528913 -0.0034199136
0002a0 4b 9e a9 bc 73 ec d0 39 73 df 97 bd 0a e1 93 3b
       -0.020705363 0.0003984902 -0.074156664 0.0045129107
0002b0 22 cc ed 3a ca 10 7f 3d 3a 06 05 3d 9b 4e 4d bd
       0.0018142501 0.06227187 0.03247664 -0.050123792
0002c0 c7 8f 00 bc c9 12 29 bd 97 5d 47 bd d0 79 94 bd
       -0.007846779 -0.04127768 -0.04867324 -0.072497964
0002d0 21 be 35 bd e6 19 90 bc 5f 61 85 bc ef 45 c8 b9
       -0.044370774 -0.017590474 -0.016281782 -0.00038199077
0002e0 4c 7b 3c bc da da 32 3d 45 b0 09 bc 88 76 5d 3d
       -0.011504006 0.043665744 -0.008403842 0.05406812
0002f0 5f c5 95 3c 8f 86 f1 bc 83 af 10 3c 17 e3 11 bd
       0.01828259 -0.029483108 0.008830908 -0.03561696
000300 4a f1 0b bd 83 60 9b 3b 49 66 04 bd eb 69 45 bc
       -0.034165658 0.0047417297 -0.03232411 -0.012049179
000310 de 62 7c bc 7b ab 23 3c e6 d0 3a bb b3 73 d2 3c
       -0.015404431 0.009989615 -0.002850586 0.025689935
000320 f5 50 92 3c 5d 02 a4 bc dd 72 67 bd e5 98 d8 bc
       0.017860869 -0.020020658 -0.056506027 -0.026440093
000330 64 dc 86 3a ed db 8b bc af bb eb bc 62 2c a7 3c
       0.001028907 -0.017072642 -0.028776018 0.020406906
000340 a0 39 45 3d 59 21 e9 3c 5b 22 74 bc f0 c6 13 bd
       0.04815066 0.028458284 -0.014900769 -0.036078393
000350 46 37 b1 3c 97 a3 85 bc e3 fe b4 bb 5a a8 e3 bc
       0.021632802 -0.016313357 -0.005523549 -0.027790237
000360 d3 a1 a6 3d da 26 87 bc 00 9b 8c 3d 68 9b 6f bc
       0.08136334 -0.016498018 0.068655014 -0.014624454
000370 d6 93 8a bd f8 8d 63 bd b7 6c be bc a4 1d 85 bd
       -0.06766479 -0.055555314 -0.023245199 -0.06499794
000380 44 1f 5a bd 6e 8d 0a 3d 0d 75 a8 3b d3 c7 30 bd
       -0.053252473 0.033826284 0.0051409067 -0.043159317
000390 95 0b 0b 3c 54 55 03 bd 67 7b 42 bd 8d 67 3a bd
       0.008486648 -0.032063797 -0.047480967 -0.04550891
0003a0 64 fe cf 3b e0 9a 1a 3d 38 b5 81 bc 45 ef 1c 3d
       0.0063474644 0.037745357 -0.015833482 0.038314123
0003b0 27 e8 21 3d 0a 73 4a bd 1a 08 f1 3c a4 c4 15 3d
       0.03952804 -0.049426116 0.029422808 0.036564484
0003c0 24 b2 bf bc 36 d0 7c 3d a5 94 9a bc 56 f1 88 3d
       -0.023400374 0.061722003 -0.018869707 0.06686656
0003d0 b7 ab f8 3c 16 fb ad bc 0b 60 8a bc 59 41 30 3d
       0.030355318 -0.021237891 -0.0168915 0.04303107
0003e0 c5 31 39 bd 70 d7 b9 3c 2a 32 3e bc 6a 1d ed 3c
       -0.04521348 0.022685736 -0.01160864 0.02894469
0003f0 fc 17 78 3d c1 2f 62 3d fc 1e fc 3d c2 e1 49 bd
       0.06056975 0.055221323 0.12310597 -0.049287565

conv3.bias f4 [150]
000000 06 b3 5a 3c 4d e7 d5 3c c4 53 ce bd dc 4e 11 bc
       0.013348347 0.02611127 -0.10074571 -0.008868899
000010 54 8c 6e 3c 6a 1c 34 3e 25 3f 4a bd 8b 96 96 bd
       0.014559824 0.17588964 -0.049376626 -0.073529325
000020 ac e5 a6 3d 29 93 31 3c 08 99 f7 bc 43 29 9c bd
       0.08149275 0.010838308 -0.030224338 -0.076250575
000030 b2 c2 9e 3e 75 97 54 bc 5a 01 b6 3d b6 c3 53 3d
       0.31007916 -0.012975563 0.088869765 0.051700316
000040 b9 54 d1 bc 38 d1 8f 3d a1 2f 2e bd 07 76 8f 3d
       -0.025553094 0.07022327 -0.04252589 0.07004934
000050 b1 29 23 3e f7 15 3a 3d 48 ad 22 be ea 07 94 3c
       0.15933873 0.045431104 -0.15886414 0.01807018
000060 ae 50 c0 3c b9 89 9f bc 85 87 bb 3c 76 74 6e bd
       0.023475971 -0.019474851 0.02289177 -0.058216535
000070 22 13 5c bd 86 00 8d 3b a4 5f 6d bc 80 9b ad 3c
       -0.053729184 0.004303041 -0.0144881345 0.021192312
000080 60 8d 7b 3c b5 df db 3d 1a 4c 64 3e c9 de 1a 3e
       0.015353531 0.10736028 0.22294655 0.15124048
000090 06 eb 1d bd 51 1a ec bc 53 1d 3d 3e 07 fa c6 3d
       -0.038554214 -0.028821142 0.18468218 0.09715658
0000a0 fb a4 d1 3d 0f 17 14 3d 0d 12 7a be 52 55 0c 3c
       0.10236546 0.036154803 -0.24420948 0.008565264
0000b0 68 0f fb 3d 61 ca 8f 3e bf 70 1e 3d 2f 4b b9 3d
       0.12258798 0.2808409 0.03868174 0.09047543
0000c0 48 86 4a 3e b1 06 9b bc cd de 76 bd 5a 64 c1 3e
       0.19777787 -0.01892409 -0.060271073 0.37771875
0000d0 d0 14 8c 3e eb af f1 3d 47 94 cd bd e1 c3 d6 bc
       0.2735963 0.11801132 -0.10038047 -0.02621645
0000e0 f0 47 46 bd ab ef 82 3c 36 0e 4f bc fd ac 85 3d
       -0.04840845 0.015983423 -0.0126376655 0.065271355
0000f0 db 8d 0f bd 90 3d ca bb 5f f9 0d 3d ea f0 88 bc
       -0.035047393 -0.0061718896 0.034661647 -0.01671644
000100 6d 1d 9d bc 93 28 d0 3e d2 37 fb 3e 42 77 c8 3e
       -0.01917907 0.40655956 0.49066025 0.39153486
000110 db e0 a7 be bc 1b 67 bc a3 0f 8c 3e 60 9d 56 bc
       -0.3278874 -0.0141057335 0.2735568 -0.013099045
000120 7c 45 7c be 6d a2 1d 3c f3 1c c7 3d a7 1c fc 3d
       -0.24635881 0.009621245 0.097223185 0.123101525
000130 ec b7 cc 3d 3f 00 0d be bf eb 2f bb 16 4d a3 3e
       0.09996018 -0.13769625 -0.0026843396 0.3189475
000140 30 c3 b8 bc 6a 20 04 bc 85 7d 0f be 8e db 16 3d
       -0.02255401 -0.008064369 -0.14012726 0.036830477
000150 28 1a 09 3d 13 2c 90 bd 2f 3d 0b bd 85 3b 8d bd
       0.03347221 -0.070396565 -0.033993896 -0.06896118
000160 0d 50 b2 39 db 35 2e 3e 60 f1 85 bd 70 70 58 bd
       0.00034010448 0.17012732 -0.06540179 -0.052841604
000170 88 ab 07 3a 22 23 5c bd 84 b3 d2 3d 2b d6 8c bd
       0.00051754015 -0.053744443 0.10288146 -0.06876787
000180 ef 6f 30 bd 71 cf b2 3e fa 6d 10 be f9 2d 8f 3d
       -0.0430755 0.3492389 -0.14104453 0.069911905
000190 81 a4 ac 3e 57 9c 40 3d d0 91 72 3e a6 90 07 be
       0.33719257 0.047024097 0.23688436 -0.13238773
0001a0 68 8f c6 3d 56 25 3b be 1a 32 13 3e 9a c3 76 bd
       0.09695321 -0.18275961 0.14374581 -0.060245134
0001b0 70 25 e9 ba 8c 18 03 bc a8 f1 af 3d c3 4e 18 3e
       -0.0017787647 -0.008001458 0.08591014 0.14873795
0001c0 69 57 d9 3d 8e c8 a0 bd 8a 88 32 bd 52 ad 94 3c
       0.10612375 -0.07850753 -0.043587245 0.018149052
0001d0 96 71 68 3e 74 10 a4 bd 0b 19 76 bb 42 ca 4e bd
       0.2269958 -0.08010951 -0.0037551548 -0.050485857
0001e0 8f b6 18 bc a9 3b 94 3e 97 fc df bd 06 11 2a 3e
       -0.009320869 0.28951767 -0.109368496 0.16608056
0001f0 8a 33 f1 3d fe 3c 99 3d 55 88 9d 3d 3f 68 cd bb
       0.117774084 0.074823365 0.07692019 -0.0062685306
000200 93 f0 00 be 97 03 04 3d fa f5 fd bd 21 9f e8 bd
       -0.12591772 0.032229986 -0.12400432 -0.113584764
000210 b7 13 60 be 19 79 2f bc 58 ed 38 bd 9c 13 82 bd
       -0.2188252 -0.010710024 -0.045148224 -0.063513964
000220 66 a1 65 3d 47 5c b3 3e b8 ad cf 3d f3 5d 91 bd
       0.056062125 0.3503134 0.10140556 -0.070979975
000230 32 b1 8f 3d c2 91 1e be a3 7f 76 bd 37 17 29 bd
       0.07016219 -0.1548529 -0.060180318 -0.041281905
000240 11 a2 d2 bd a1 39 8e 3e 4d bb 0b 3e 6f 91 d8 bd
       -0.10284818 0.27778342 0.13645668 -0.10574614
000250 f2 7c 41 3e 8c b8 2a 3e
       0.18895319 0.16671962

fc1.weight f4 [10, 9600]
000000 4c f8 b9 3c 82 58 0e 3d 1d 3d fc 3c e7 e8 6f 39
       0.022701405 0.034752376 0.03079086 0.00022879579
000010 f4 0f b4 3c 9d 83 d8 3c 40 fb bb 3b c1 a1 ca bb
       0.021980263 0.026429946 0.0057367384 -0.0061838333
000020 0c 33 41 bc ff 8d 29 bb fe 70 0d bd 68 6d 98 bd
       -0.011791956 -0.002587199 -0.034531586 -0.074427426
000030 65 cd 13 bd bb 3a 58 bc ee 49 bc 3b 46 2f 3e 3c
       -0.03608455 -0.013197596 0.005746118 0.011607951
000040 2f 5b 4a 3c af 32 b6 3b 71 ee fb bc aa c5 26 3c
       0.012350841 0.005560241 -0.030753346 0.010178963
000050 28 45 c1 3c b6 6e cc 3c c0 39 c9 3c e6 2e a8 3c
       0.023592547 0.024955135 0.02456367 0.020530175
000060 be 4c 95 bc 41 2d 65 3c 7e 4b d1 3b b5 dc b0 3c
       -0.01822507 0.01398784 0.006387173 0.021589616
000070 b2 35 72 bb cc 2c c0 bc 30 76 03 3b 5e af cc bb
       -0.0036958274 -0.02345886 0.002005946 -0.0062464913
000080 6a 48 1b 3c f0 66 2e 3d 75 0f 38 3d 0d f7 2d 3d
       0.009477714 0.042578638 0.044936616 0.042471934
000090 09 88 c5 3b 72 e0 b0 bc b5 4b cc bb 0a a5 cd bc
       0.0060281795 -0.021591399 -0.006234611 -0.02510311
0000a0 c4 da d5 3c 09 6a 1c 3b 64 e9 02 3d 9e 2b b7 bc
       0.026105292 0.0023866913 0.03196086 -0.022359665
0000b0 2d 61 79 bc de b7 6d bc ec 9a 30 3c 5a 04 e2 3b
       -0.015220922 -0.014509169 0.010779124 0.0068974914
0000c0 d6 b1 1f 3c 9c 13 b2 3c 3b e2 0a bd 90 54 11 bd
       0.009746989 0.021737866 -0.033907156 -0.035481036
0000d0 d4 52 65 bc 77 0c 10 bc c3 a6 dc bc c5 65 cc bb
       -0.013996799 -0.008792034 -0.026934987 -0.006237718
0000e0 ad c8 74 bd 7e 5d 39 bd 1c 2e 88 bc 2f a6 69 3b
       -0.05976169 -0.045255177 -0.01662355 0.0035652032
0000f0 8e 1e 84 3c a7 23 1d 3c 61 93 46 3c 9c a3 e0 bb
       0.01612785 0.00959102 0.012120099 -0.0068554413
000100 8e 05 00 3c 0d db 4c 3b 91 89 62 bc a2 a5 85 bc
       0.007813824 0.0031258494 -0.013826744 -0.016314331
000110 2d 44 ff bc 74 ef 17 bc 6c 7d 00 bc 0a 11 ce 3c
       -0.031160438 -0.009273399 -0.007842403 0.02515461
000120 b7 06 26 3d 55 a7 d4 ba a4 57 0c 3c a3 7f d7 3c
       0.040533748 -0.0016224185 0.008565817 0.02630598
000130 bb c3 9a bc 40 fa ec 3b b3 31 ec 3c 49 52 58 3d
       -0.01889216 0.0072319806 0.028832292 0.05281285
000140 a7 da c6 3c 17 47 11 ba b9 01 b8 3c 11 22 2b 3d
       0.024274183 -0.0005541904 0.022461759 0.041780535
000150 80 27 63 b6 68 a8 b7 bc 40 97 c1 3b 21 52 1a 3d
       -3.3848628e-06 -0.02241917 0.005907923 0.03767598
000160 79 24 18 3c 65 0e 29 3b 70 c3 2d bd 43 79 0f 3c
       0.0092860395 0.0025795933 -0.04242271 0.008756938
000170 b3 24 e1 bc 64 d9 5f bd 74 5b 05 bd 07 09 c1 3c
       -0.02748332 -0.05465068 -0.03255792 0.023563875
000180 11 7c 9b 3c 0a 85 54 bb 7b 32 bb bd d2 a5 5e bc
       0.018980058 -0.003242793 -0.09140488 -0.013589339
000190 2d 6c 72 bc 7b 11 32 bd 18 9d 13 bd c7 b8 0a bd
       -0.014796299 -0.043473702 -0.03603849 -0.033867624
0001a0 9d b5 5a 3c 39 98 fc 39 1b 4b 42 bd 3d 2d 0f bc
       0.013348964 0.000481786 -0.047434907 -0.008738813
0001b0 bf b3 af bc 32 fa 4d bc 6a 19 2b bc f2 35 0a bc
       -0.021448014 -0.012571858 -0.010443071 -0.008435713
0001c0 0b 1e 63 bc d2 8e 0f bb 01 f5 5e 3c ff b2 06 3c
       -0.013862143 -0.0021905196 0.013608218 0.008221387
0001d0 6e 74 fe 3b 42 b6 cd 3c 36 01 c7 3c 38 ec 27 3c
       0.0077653443 0.025111321 0.02429257 0.01024919
0001e0 d5 44 82 3a c6 d2 c8 bc bc 25 30 bc 60 ca df 3c
       0.0009938726 -0.024514567 -0.010751184 0.02731818
0001f0 90 53 d8 3c 29 c5 7e 3c 43 ee 98 bb da 52 14 3c
       0.026407033 0.015549936 -0.004667075 0.0090529565
000200 0c 86 d6 3c 36 c3 72 3a 9a 73 2f bb 44 dd 14 bd
       0.026186965 0.0009260656 -0.0026771785 -0.036343828
000210 33 e3 ea bb ef 39 93 bc 87 be 28 3d 97 38 d6 3b
       -0.0071681975 -0.01797196 0.041197326 0.0065375078
000220 61 f0 14 3c 0b 72 52 3c 6c f2 fc ba d5 fb 99 bb
       0.009090514 0.012844573 -0.0019298322 -0.00469921
000230 3b 14 2a bc e8 3e 2d bb 95 0e 19 3d 5b dd b5 3c
       -0.0103808 -0.00264352 0.037367422 0.022200277
000240 58 80 a9 bb 25 79 cb 3c 73 00 a5 ba 64 ec 84 3b
       -0.0051727705 0.02483804 -0.0012588635 0.0040565003
000250 2b 03 f0 3c bd ab b8 3c 1d 8a 92 3d b5 96 1f 3c
       0.029298386 0.022542829 0.07155249 0.009740521
000260 a8 81 ed 3a 53 97 1f bd bd ff 03 bd 7a 4d 98 bc
       0.0018120306 -0.038962673 -0.032226313 -0.018591631
000270 02 66 aa bc 98 67 29 3d 48 4b c9 3d 06 1b fb b9
       -0.020800594 0.04135856 0.09828812 -0.00047894585
000280 89 d9 37 3c 1f 25 71 3b 8e 12 39 bd 24 2e be ba
       0.011221298 0.0036795808 -0.04518371 -0.0014509601
000290 e7 2f 96 3c 25 5f a5 3d 8e c0 50 3c 16 a2 c9 ba
       0.018333388 0.08074788 0.012741221 -0.0015383388
0002a0 26 38 4f bb 4b 93 95 3c 83 06 70 bd b6 90 b1 bd
       -0.003161916 0.018258711 -0.05859996 -0.086701795
0002b0 0f 98 cb 3a 03 2a 9b 3c fb 17 da bc c5 ec 4f bc
       0.0015532988 0.018940931 -0.026622763 -0.012690728
0002c0 97 18 fd 3a df 38 c3 3c 41 24 29 bc 4e b3 c0 bc
       0.0019309697 0.02383083 -0.010323585 -0.023523
0002d0 96 15 c4 3c a2 83 73 3c 01 ee 1e bd 49 7c a3 3c
       0.023936074 0.014862927 -0.038801197 0.019956725
0002e0 36 86 3e 3d 5e ec 04 3d 9f 06 1b 3d 66 92 26 3d
       0.046514712 0.03245198 0.03784811 0.04066696
0002f0 af 82 05 3d 96 ec cc 3c 2b 4c 9e bc 2f 55 91 ba
       0.032595333 0.025015157 -0.01932343 -0.0011088009
000300 d9 6b 77 bc fc 6c 26 3b 09 f5 65 bc 88 b4 0a 3b
       -0.0151013965 0.002539455 -0.014035472 0.0021164734
000310 be c4 ad bc b2 c1 db bc 8c 40 50 bc 84 0c ad bb
       -0.021211978 -0.02682576 -0.012710702 -0.005281033
000320 2e 21 85 3b 55 2c 4e 3c 8a 61 9d bb bb 70 e3 3c
       0.004062793 0.012583812 -0.0048028873 0.027763715
000330 43 10 04 3c 7c 37 83 3b 04 30 b0 ba 1b de 53 3c
       0.008060518 0.004004417 -0.0013442044 0.012931372
000340 20 59 4f 3c df 6b b4 3b 8a 9f 4d bc f1 9a 1b bc
       0.012655526 0.0055060233 -0.012550244 -0.00949739
000350 22 1e d5 bb a2 b9 e1 3a f0 62 c0 bc a2 be 12 3c
       -0.0065038363 0.0017221461 -0.023484677 0.008956583
000360 95 fc 82 bc f2 a9 cb 3a ff 1c d1 bb 01 b6 33 bc
       -0.015989581 0.0015538319 -0.0063816304 -0.010968686
000370 84 31 05 3c 63 58 ad bc 1b 0c 44 bc ac ef 90 3c
       0.008129481 -0.02116031 -0.011965777 0.01769241
000380 f6 e2 33 ba 92 90 f1 bc 14 d9 ac bc 50 db 8b bc
       -0.0006862128 -0.029487882 -0.021099605 -0.01707235
000390 2b c8 30 3c 1d 75 bc bb 07 6e 59 bc fb 8c b3 bb
       0.010789911 -0.0057512657 -0.0132708615 -0.0054794527
0003a0 e1 96 00 bc a5 dd 48 bc 3d 62 9e bc fd 56 2d bc
       -0.007848472 -0.012259875 -0.019333953 -0.010579822
0003b0 1b 83 41 ba 0b d0 98 3c 61 d0 56 bc ab 1d e0 b9
       -0.0007381902 0.01865389 -0.013111205 -0.00042746714
0003c0 80 61 f7 3b cf 30 7d bc c8 61 b8 3b d0 3e e9 3a
       0.0075494647 -0.015453531 0.005626891 0.0017795209
0003d0 2b ab ad bc b6 0b b6 3c 89 fc 9c 3c a6 70 b0 3b
       -0.021199783 0.022222381 0.019163387 0.0053845225
0003e0 43 ea 51 3c 23 6c 18 3a ee f5 fe 3b 2c 7d 6a 3c
       0.0128122 0.00058144535 0.007780782 0.01431207
0003f0 23 59 cf 3c d2 5f 4f bc 77 0d e4 bc b5 62 d7 bb
       0.025311058 -0.012657123 -0.027838452 -0.006573046

fc1.bias f4 [10]
000000 e6 80 e7 bd a1 57 87 be c0 ff 9b bd e2 21 dd 3c
       -0.11303882 -0.26434043 -0.0761714 0.026993696
000010 8e ce a4 3e 99 20 85 bd 58 43 cf 3e 8e b4 38 bd
       0.3218884 -0.06500358 0.40481067 -0.045094065
000020 f9 7f 36 3c 3e 01 56 be
       0.0111389095 -0.20898911
