logs/best_epoch_3.ckpt (torch, 676783 bytes, 8 tensors)

conv1.weight f4 [10, 3, 3, 3]
000000 9d 17 eb bc 29 44 d7 3d f4 2b e8 3d 76 bb 29 3d
       -0.028697783 0.105110474 0.113365084 0.041438542
000010 c2 63 1c be 20 67 37 bd 30 f8 45 bd b5 ba 08 be
       -0.1527243 -0.044776082 -0.048332393 -0.13352473
000020 8c ed ff 3b 53 29 d0 bc 3a 81 a6 bd 51 a1 03 be
       0.0078103 -0.02541033 -0.08130117 -0.12854506
000030 ac 59 43 be ca ab 88 3d 2c b3 15 3d 3e 85 33 be
       -0.19077176 0.06673391 0.036547825 -0.17531297
000040 32 7c 72 bc 53 4b 8e bc 27 57 b9 bd 55 05 d3 bd
       -0.014800118 -0.017369902 -0.09049826 -0.103037514
000050 49 da 1a bc 16 13 f1 3c f7 f6 d3 bd 3f 13 31 3e
       -0.009451457 0.029428046 -0.10349839 0.17292498
000060 0b b9 d9 3d 9b 13 29 3e 61 28 26 bd 85 d3 05 3d
       0.10630997 0.16511385 -0.040565852 0.032672424
000070 0a 46 11 b9 ae 7e d7 bc 4c 99 94 be 9d 58 94 be
       -0.00013854369 -0.026305523 -0.29023206 -0.28973857
000080 13 cb 9c bd 95 de ab be fc b6 44 be 9b df 99 be
       -0.07655921 -0.33568254 -0.19210428 -0.3005341
000090 37 e7 76 3d 3f 9b dc bc bd f4 66 be 61 18 d1 3c
       0.060279097 -0.026929496 -0.22554298 0.02552432
0000a0 e8 0d 10 be 37 0d 2d 3d 66 3c ba 3d 5a 50 29 be
       -0.14067805 0.04224893 0.09093551 -0.16534558
0000b0 fa f5 02 3b 01 1c 7a 3e 28 d9 ac 3e 2b bf 97 3e
       0.001998304 0.24424745 0.33759427 0.29638037
0000c0 e2 c5 23 3d ea 0d 80 3e d5 99 84 3e e4 9c 60 3e
       0.039983638 0.25010616 0.25898615 0.21934849
0000d0 7a 7e 74 3e 8e f2 52 3e 2e 66 2b 3e 40 21 f0 3e
       0.23876372 0.2060034 0.16738197 0.46900368
0000e0 c6 0a 48 3e 14 9d 09 bd a8 0c cc bd d9 fb 83 3e
       0.1953536 -0.033597067 -0.099633515 0.25778082
0000f0 65 35 81 be 59 d0 b3 be 5a a8 54 bd 48 e3 28 3e
       -0.2523605 -0.35119894 -0.051918365 0.16492951
000100 07 d8 72 3d 19 41 3e 3e 4f 9a 73 be 3a 33 9b bc
       0.05928805 0.1857952 -0.23789333 -0.018945325
000110 ca ec 85 3d 15 e0 e5 be d3 6a 15 be ba 8d 11 be
       0.065393046 -0.44897524 -0.14591531 -0.1421422
000120 f5 45 f0 3e 35 e0 2a 3f 8a 35 04 3f 93 be f2 3e
       0.46928373 0.6674836 0.51644194 0.47411022
000130 95 2d be 3e 5c 94 08 3f 56 dc 81 3c 7a 9b 5f 3e
       0.3714415 0.5335138 0.015852135 0.21836653
000140 d9 ec a8 3d 85 20 17 3f 2f 48 09 3f 25 e6 08 3f
       0.082483 0.59033996 0.5362577 0.5347617
000150 bc 20 e2 3e 31 0f 21 3f c6 7f 07 3f 0e 59 fd 3d
       0.441656 0.62913805 0.5292934 0.123705015
000160 c5 f5 28 3d f3 06 cc 3e d7 95 92 3c a9 4e 05 bd
       0.04125001 0.39849052 0.017893715 -0.03254572
000170 04 3c aa bd c7 d4 56 be b3 dd 0c be b1 83 e3 bd
       -0.08312228 -0.20979606 -0.13756447 -0.111091025
000180 f5 e8 b1 be f5 5a 04 bf 65 d9 9a be f0 d2 1f be
       -0.34748045 -0.5170129 -0.30243984 -0.1560781
000190 99 46 92 bd d8 7f 10 3d be 84 19 be 8c a9 4b be
       -0.07142372 0.03527817 -0.14992043 -0.19888896
0001a0 ba e0 8c be 8c 29 50 be 3e 8a dd bd cb e2 88 be
       -0.27515203 -0.20328349 -0.10817383 -0.2673553
0001b0 38 f4 08 3f 51 32 f4 3e 4a b4 e2 3d 19 21 5d 3f
       0.5349765 0.47694638 0.11069544 0.8637863
0001c0 d9 d9 e6 3e 1f 3f ca 3c 11 20 0d 3f 1a 2d d4 3e
       0.4508808 0.024688302 0.55127054 0.4144066
0001d0 f3 6e 48 be d2 17 93 be ef b8 14 bf bd 1e 41 bf
       -0.19573574 -0.2872911 -0.58094686 -0.7543753
0001e0 a5 39 75 3d 21 61 8b be 45 a7 13 bf 23 67 c2 bd
       0.059869427 -0.2722254 -0.5767711 -0.09492328
0001f0 e1 27 f3 be c8 b3 19 bf cc 1b d5 3e a8 c7 a8 be
       -0.47491363 -0.6003995 0.4162277 -0.32964826
000200 be 70 ac be d8 d0 03 3f 24 7d ae bd b7 09 1a bf
       -0.33679765 0.51490545 -0.085199624 -0.60171074
000210 af 84 7f 3e bf ac eb 3d a1 d0 ec be bf 5a e9 3e
       0.24952959 0.11507558 -0.4625292 0.45577046
000220 fa 5c 10 3f 0c c0 0e 3f 54 65 f7 be 54 f0 80 be
       0.5639187 0.5576179 -0.48319495 -0.25183356
000230 78 b7 e7 be f6 12 ee be b3 da 02 bf 33 6c 05 bf
       -0.45257163 -0.4649884 -0.5111496 -0.52118224
000240 11 57 c8 3e f8 5a 2b 3f 33 cd ec 3e 88 2a a1 bd
       0.39128926 0.6693568 0.46250305 -0.0786944
000250 99 90 58 be f4 f3 83 be 7c df cf be f1 0a 5c bf
       -0.2114891 -0.2577206 -0.40600193 -0.85954195
000260 5a 23 2c bf ef 28 2f 3f a2 57 5f 3f 40 4b d1 3e
       -0.6724144 0.68421835 0.8724309 0.40877724
000270 96 06 c0 3d b3 42 73 be 2c 2d a1 bd 44 e5 2a be
       0.09376256 -0.23755912 -0.07869944 -0.1668902
000280 c4 52 d6 be a0 bf f5 be 3c 3b 6e be 9f 47 42 3e
       -0.4186002 -0.4799776 -0.23264784 0.18972634
000290 fd 42 db bd 37 42 19 be 0c ab 0e be 8b 11 4c 3e
       -0.107061364 -0.14966665 -0.13932437 0.19928567
0002a0 b4 3b f7 be 48 92 1e be 2d 57 c9 3e 54 9e d7 3d
       -0.48287737 -0.1548549 0.39324322 0.105282456
0002b0 dc 22 de 3e e8 d3 83 3e 44 ce 93 be 71 df 5c 3e
       0.4338597 0.2574761 -0.28868306 0.21569611
0002c0 59 79 01 3f 62 70 02 be 7f 01 52 3e a3 aa fd 3e
       0.50575787 -0.12738183 0.20508383 0.49544248
0002d0 e5 da 58 be cc fd e6 bd 22 c2 89 be ac 1e 33 be
       -0.21177252 -0.11278877 -0.26905924 -0.17492169
0002e0 4b df 12 be 5a f8 c5 bd d7 d5 f9 be 1c ca cf bd
       -0.14342992 -0.0966651 -0.4879596 -0.10145971
0002f0 5a b5 38 3e 91 7c 8c 3d 9f 7f 34 be c1 21 2d be
       0.1803793 0.06859697 -0.17626809 -0.16907407
000300 44 57 92 3d 80 06 2f be e9 10 8a be 6f e6 0c bd
       0.07145551 -0.17092323 -0.26966026 -0.034399446
000310 a2 d3 a0 bc d9 2d 8b bd 89 ac 26 bd 29 c3 2d 3d
       -0.019632164 -0.06795854 -0.040691886 0.042422447
000320 99 db 19 be 6c b2 9b 3d 5e ed 18 be 08 fe 09 3e
       -0.15025176 0.07602391 -0.14934298 0.13475811
000330 12 62 57 be 64 06 99 3d 13 ec 3c be e5 d2 e9 bd
       -0.21033505 0.07471922 -0.1844943 -0.11417178
000340 b7 2a 39 3d 22 7e 60 3c a2 e9 82 3d e2 30 2a 3e
       0.04520675 0.013701947 0.06392218 0.1662021
000350 d5 5a 72 3e 09 57 01 3e fe a6 42 3e e2 51 60 3e
       0.23667462 0.12630858 0.19009015 0.21906236
000360 4e 6c 3f 3e dd 38 f7 3e 90 87 d5 3e 58 c4 97 3e
       0.18693659 0.4828557 0.41704988 0.29641986
000370 c7 28 71 3e 1e 45 12 3f 08 e3 fe ba a6 6c 34 3e
       0.23550712 0.57136714 -0.0019446323 0.17619571
000380 c2 b6 e6 3e a0 90 c0 3d 10 d7 ae 3d a2 85 fa 3e
       0.45061308 0.09402585 0.08537114 0.4893008
000390 4d 82 77 3e 90 d3 9e 3e 84 fa cf 3e 89 3b cd bd
       0.241708 0.31020784 0.40620816 -0.10021121
0003a0 06 e1 51 3e dc 8c 1a 3f 84 7a 3d bf 19 b5 47 bf
       0.20495996 0.60371184 -0.7401507 -0.7801071
0003b0 18 e6 ac be 93 a4 47 bf b3 9b 19 bf 58 6e 0d bf
       -0.33769298 -0.77985495 -0.60003203 -0.55246496
0003c0 25 9d 2b bf 43 5b 4e bf 12 39 03 bf f0 76 95 be
       -0.6703666 -0.80608004 -0.5125896 -0.29192305
0003d0 a6 92 37 3c 82 02 d5 3e 3b f7 db be 90 13 48 bd
       0.011204397 0.41603476 -0.4296206 -0.04884678
0003e0 a6 21 00 3f 39 8e d9 be 57 46 c3 bd f2 31 d9 3e
       0.50051343 -0.4249132 -0.09534901 0.42420918
0003f0 ff 9e fd be 1f e6 a5 be c6 a1 9e 3e ac 25 ef be
       -0.49535367 -0.3240213 0.30982798 -0.4670843

conv1.bias f4 [10]
000000 a1 10 ad bd a6 da 3b be 9b f4 8a bf 48 10 19 be
       -0.08450437 -0.18345127 -1.0855898 -0.14947617
000010 e6 62 e2 3e 98 ea 20 3f 0a d6 a1 3d 61 14 b7 be
       0.4421608 0.6285796 0.07902153 -0.35757735
000020 66 8c de 3e b0 4f 1d 3e
       0.4346649 0.1536243

conv2.weight f4 [50, 10, 3, 3]
000000 55 80 79 bd 38 8c 43 3d fb 98 96 3d ce 39 bb bd
       -0.060913403 0.047741145 0.073533975 -0.09141885
000010 e4 7c d0 3d 45 28 0f 3d 58 9f b9 bc 79 06 b8 3c
       0.10180071 0.034950513 -0.022658989 0.022464024
000020 fc 2d b1 bd 3f 61 d5 3d d4 82 ac bd 54 de cc 3d
       -0.08651349 0.10418939 -0.08423391 0.10003343
000030 c1 46 b5 bc 71 7b b4 3d 08 6b 1a 3b fe 59 a2 bb
       -0.022128465 0.08812607 0.002356233 -0.0049545756
000040 2c 7d 94 3d f4 3c c6 3d f2 0a c3 bd 3b 5d 01 bd
       0.07250437 0.09679595 -0.09523572 -0.031583052
000050 30 11 1d be a7 92 04 3e 95 f4 67 3d 7d 03 ff bb
       -0.15338588 0.12946568 0.056629736 -0.0077823983
000060 68 f1 28 3d a9 51 d6 3d 36 92 d9 3c 1b b9 15 3e
       0.041245848 0.10464794 0.026558977 0.14621393
000070 30 67 bf 3d 69 40 8e 3d d3 64 df 3c 7d 27 38 3c
       0.09345853 0.06945879 0.027269756 0.0112398835
000080 31 84 fa bd 3e cd 0d be 35 a6 73 ba 9e 75 1a 3d
       -0.12232245 -0.13847825 -0.0009294481 0.037709825
000090 7a ac 71 3e 13 e8 59 3e 1e c9 48 3d e4 0e 0c bd
       0.23600951 0.21279936 0.049019925 -0.03419389
0000a0 f6 74 36 bd 6f 29 d2 bd 09 f8 27 be cc cf f2 bd
       -0.044545136 -0.10261809 -0.16403212 -0.1185604
0000b0 54 64 1f bd 92 8c 15 3d 88 9f e7 3d 2d c4 a6 bd
       -0.03891404 0.03651101 0.11309725 -0.08142886
0000c0 00 1a 3b bd 67 f9 82 bd 5a 08 bb 3d cb e2 82 bc
       -0.045679092 -0.06395226 0.09132452 -0.015977284
0000d0 89 1c 29 3d e6 73 7e 3c 66 fd 3e 3d 13 d4 5b bc
       0.04128698 0.015530562 0.04662838 -0.013417262
0000e0 ee 00 a5 3d 60 53 32 3d 44 0f 1e bd a4 22 ec 3c
       0.08056818 0.043536544 -0.038588777 0.028825112
0000f0 1f c5 72 bc bc 42 d7 bd 62 26 1c 3c e3 6d 14 bd
       -0.014817505 -0.105107754 0.009530636 -0.03623761
000100 7c b6 db 3b 44 3c 9e 3d 6d 82 13 bd ea c1 b1 bd
       0.0067051034 0.077263385 -0.036013056 -0.08679564
000110 1b 85 d6 3d 1e 61 87 bd 86 fa b5 bb 7a 90 a4 bd
       0.104746066 -0.066103205 -0.0055535464 -0.08035369
000120 31 3c 06 3e ef a9 26 3e 92 49 0d 3d b1 b2 16 be
       0.13108899 0.16275762 0.03449399 -0.14716603
000130 37 59 06 3d 03 28 ab ba 57 96 73 be df f9 31 be
       0.032799926 -0.0013058189 -0.23787819 -0.17380475
000140 a5 3f 07 be cb e5 8b bc 79 95 cf 3c 1f 0d 15 3d
       -0.13207872 -0.017077347 0.025339829 0.036389466
000150 1b d3 f0 3d 98 b4 1d 3d 26 0c b7 bc d1 ed 3c 3c
       0.11759015 0.038502306 -0.02234466 0.011531309
000160 6c bd d0 3c 70 7d da bd c3 2f cf bd 44 3c a0 3c
       0.025480948 -0.106684566 -0.10116532 0.019559987
000170 9b 26 ba 3d a5 33 20 bd e9 bc d0 3d 6e a4 0a 3d
       0.09089395 -0.039111752 0.10192282 0.03384822
000180 72 8d 87 bc 7c c5 b2 bc 77 0b a8 3d e6 0f a2 bd
       -0.016546939 -0.021822684 0.08205312 -0.07913189
000190 8a 25 be bd 60 81 ce 3d 6c 98 a9 3d e0 ca 88 3d
       -0.09284504 0.1008327 0.08281025 0.0667932
0001a0 cf fd 30 3d 16 0a 35 bc e4 54 1a bd 49 bf af 3c
       0.0432108 -0.011049768 -0.037678614 0.021453517
0001b0 52 60 2c 3e a3 57 02 be aa e3 04 3d 00 3b 0c 3e
       0.16833618 -0.12728743 0.03244368 0.13694382
0001c0 f5 4c 3f 3e dc 05 d7 bd 16 c5 49 be 56 f0 00 3e
       0.186817 -0.104991645 -0.19704089 0.12591681
0001d0 0c 65 8f bd 76 c2 88 bd d4 8f 47 be e3 41 0e be
       -0.07001695 -0.066777155 -0.1948846 -0.13892321
0001e0 08 ee 55 3e e3 de c5 3d 4c 3e ad 3b df a7 4f 3d
       0.20891583 0.09661653 0.0052869674 0.050697204
0001f0 36 6c b8 3b bb 5e 7f 3d 5e b3 b4 bd fd 15 9c 3d
       0.005628134 0.0623462 -0.08823274 0.076213814
000200 6a 88 e2 bd 30 56 0f be 4f ae 83 ba 7b 2f cd 3d
       -0.11061175 -0.13997722 -0.0010046455 0.10018822
000210 fe 46 40 3e 90 22 e2 bd a2 0d 12 bc 1e ae 64 bd
       0.18777081 -0.110417485 -0.008914383 -0.055830114
000220 a0 8f eb bd a1 58 12 3e 7f 33 81 3e 35 48 49 be
       -0.11502004 0.14291622 0.252346 -0.19656451
000230 ef ea 0c be ed 03 0f 3e 38 57 a7 3e c9 e4 99 bd
       -0.13761495 0.13966341 0.3268373 -0.075143404
000240 9b 71 18 3e c4 c5 92 bd e0 82 81 bd d4 de 8a 3d
       0.14887087 -0.07166627 -0.063237906 0.06780782
000250 c1 5e f9 3d ef 8b c5 3b 50 07 eb 3c 93 9c 05 3e
       0.12176276 0.0060286443 0.02869001 0.1304801
000260 21 b9 b1 3d 09 5e ad 3d f8 9f 07 bd b1 1a 43 3c
       0.08677889 0.084652014 -0.033111542 0.011908219
000270 3f 62 b9 3c f3 ea a7 bc ff 62 10 3d 2c fb 8a bd
       0.022629855 -0.020497775 0.03525066 -0.067861885
000280 38 9e 8d bd a2 88 47 3d 92 c1 2a bd 29 b5 37 bb
       -0.069149435 0.048714288 -0.04168851 -0.0028031564
000290 58 b8 44 bc 9b 54 59 3e ea 52 25 3e 85 53 6c bd
       -0.012006842 0.2122368 0.1614491 -0.057696838
0002a0 6d cd 3f be c0 d4 7e 3d d1 ff 78 bd b8 36 ff bc
       -0.18730707 0.062214613 -0.06079084 -0.031154022
0002b0 3d f4 1e be 30 55 db 3d 3b 99 30 3e c3 28 a4 bd
       -0.15522857 0.107096076 0.17245953 -0.08015587
0002c0 6c 12 dc ba 85 35 4e 3d 65 2a 4a 3e e9 45 54 bd
       -0.0016790158 0.05034401 0.19742735 -0.051824484
0002d0 fa 47 b9 3d e1 18 08 3d 82 14 44 3d 03 58 a5 bd
       0.090469316 0.03322685 0.04787112 -0.080734275
0002e0 bd 52 e7 3c f5 41 f6 3c 8f 62 d9 bb 35 b4 97 bd
       0.028237695 0.030060748 -0.0066340636 -0.07407419
0002f0 8f 91 38 3d 25 90 25 bd 70 ba 06 3b 48 17 d1 bd
       0.04506069 -0.04042067 0.0020557903 -0.10209519
000300 9c 6b c2 bd 65 11 01 bd c7 30 58 3d a5 06 d5 bd
       -0.09493181 -0.03151073 0.052780893 -0.10401658
000310 64 62 c6 bd 7b 7f ce bd b1 c1 7a bb 66 76 fb 3d
       -0.09686735 -0.10082909 -0.0038262422 0.12278442
000320 16 46 4a 3d 5b b3 99 bd 78 3d 66 bd 86 e7 de bd
       0.049383245 -0.075049125 -0.056210965 -0.10884003
000330 67 2e e4 bc b1 bc 51 3d cd 40 d7 bb ed 9f 2a bd
       -0.027854158 0.05120534 -0.006569004 -0.041656423
000340 00 43 44 3d 4a aa 2f 3d 46 9c 1a 3c bd e5 b7 bd
       0.04791546 0.04288701 0.009436673 -0.08979366
000350 55 b3 47 3d 41 56 c4 3d 73 95 a7 3c 4f 45 bc 3d
       0.04875501 0.09586764 0.020457005 0.09192907
000360 e8 d1 6f bd e5 fa b3 bd b2 08 80 bd d8 ef a6 3c
       -0.05854979 -0.08788089 -0.062516585 0.020378038
000370 92 fa 2c bd f1 19 e6 bb f0 2b 00 be b9 bd d7 bd
       -0.04223115 -0.0070221354 -0.12516761 -0.105342336
000380 81 3a 3d bd 73 65 6c 3d 08 84 69 3e 24 5b 1a 3e
       -0.04619837 0.057713937 0.22804272 0.1507383
000390 20 36 19 be 7f de 5a bd 0f 0e 93 3d 48 13 f5 3d
       -0.14962053 -0.053434845 0.07180416 0.11966568
0003a0 59 d5 f6 bc ea 85 b0 bd ca 40 7e bd 57 3f b9 3c
       -0.030131029 -0.08619292 -0.062073506 0.02261321
0003b0 ca 0d a1 3d cb 4f 88 bd 50 9c 96 bc 3c 3b 07 bd
       0.07863958 -0.06655844 -0.018385082 -0.033015475
0003c0 e0 05 28 bd 17 ab 26 bd 0c 49 4d bd 54 8c 20 bc
       -0.041021228 -0.040690508 -0.05011849 -0.009799082
0003d0 10 80 e7 3c c9 f3 38 3c 57 1d 34 bc ee 7a 83 bb
       0.028259307 0.011288592 -0.010993323 -0.004012457
0003e0 a9 b4 37 3d 8c f5 08 3d b4 bf 95 3d 81 00 92 3d
       0.044850025 0.033437297 0.07311955 0.07129002
0003f0 0f dd 99 bc c5 c8 c5 3d 8d 9b bb bb 2f 6e 6a 3d
       -0.018782167 0.096574344 -0.00572533 0.057233986

conv2.bias f4 [50]
000000 80 6a 42 be d2 83 dd be de 7b 4f bd 13 3a c8 bd
       -0.18985939 -0.43264633 -0.05065524 -0.09776702
000010 d5 6b 43 3e e3 f6 4c be 1c 8a 9c 3d 06 9e 43 be
       0.19084103 -0.20016055 0.0764353 -0.1910325
000020 ef f9 db bd ca c7 35 be 61 88 07 be a7 03 7b be
       -0.107410304 -0.17751995 -0.13235618 -0.24513112
000030 26 b5 8f 3e 4b 7c 3c 3e b8 96 7e 3d c2 14 b6 bd
       0.28067893 0.18406789 0.062155455 -0.08890678
000040 c8 56 47 be ab 97 27 3e af 8d fb bc 4a 96 76 be
       -0.19466698 0.1636645 -0.030707208 -0.24080768
000050 65 2b 90 3d 6a df fd 3d bb 7a 35 be 96 f7 5b be
       0.07039527 0.123961285 -0.17722599 -0.21481165
000060 b4 ba 56 bd 87 76 8f bd b5 f0 75 3e 8a ee 7a be
       -0.052424148 -0.07005029 0.24017604 -0.24505058
000070 bf 9e 09 be 50 f2 51 be d3 78 03 bd 08 28 21 be
       -0.13439463 -0.20502591 -0.03209765 -0.15737927
000080 e9 79 53 3e a2 4d 46 3e ba 45 4f be a8 40 b1 be
       0.20651974 0.19365552 -0.20241442 -0.3461964
000090 e2 d8 80 bd c3 9f bc bd aa 9f 42 be 07 37 01 bd
       -0.06291367 -0.0921016 -0.1900622 -0.03154662
0000a0 84 dc 74 3d 2b 96 d8 bd 47 43 1f bc 97 09 d9 bd
       0.059780613 -0.10575517 -0.00972063 -0.10597532
0000b0 8a 1f b3 bc 4d 7a 51 3e 6f 41 e2 3e 9a 07 3c 3e
       -0.021865625 0.2045681 0.44190547 0.18362275
0000c0 d3 f1 b6 3c 8b d2 13 3e
       0.022332108 0.14435785

conv3.weight f4 [150, 50, 3, 3]
000000 e6 38 47 bb bf c3 29 bd 94 3e f2 bc f9 b0 b8 3c
       -0.0030398904 -0.041446444 -0.029570855 0.022545325
000010 d1 88 ad bb 3a 4e 5b bc 84 58 08 3c 53 93 5c 3b
       -0.005295851 -0.01338535 0.008321885 0.0033657148
000020 ea e8 33 3c d4 30 50 3c 5d 25 54 bc 3b fc 02 bd
       0.010980824 0.012706954 -0.012948361 -0.031978827
000030 25 1b 34 bd ff c9 f4 bc a4 18 f6 3c 62 ce 17 3d
       -0.0439712 -0.029881475 0.030041046 0.037062056
000040 4a 77 35 3b 75 24 32 ba 47 11 60 3c 1d 6e 3e 3d
       0.002768951 -0.00067955937 0.013675994 0.04649173
000050 19 d6 5b 3c e0 90 ce 3c 8d c3 b6 3c 94 f7 3b bd
       0.013417744 0.025215566 0.022310043 -0.045890406
000060 56 84 98 bc 25 b5 33 39 fa e3 03 3d 0f 51 c1 bc
       -0.01861779 0.00017138252 0.032199837 -0.023598222
000070 55 f9 82 3c f7 eb f5 3c 40 e3 78 3d 10 ff 98 3b
       0.015988031 0.030019743 0.060763597 0.0046690777
000080 54 b5 18 3d 9a 9d 06 bc 7a f8 06 3d 4e 38 6c 3b
       0.037282303 -0.008216286 0.03295181 0.0036044302
000090 50 1b dc bc ea 14 80 bd 77 5f 9a bd a3 42 3b 3d
       -0.026868492 -0.06253989 -0.0753774 0.045717847
0000a0 0d e9 b9 3b 01 fc 9a 3b 31 ec d1 bc 4a e9 27 bd
       0.005673534 0.0047297482 -0.02562532 -0.040993966
0000b0 59 8d e4 bc 7b 1c 2e 3d 7a eb 23 bd ee 5f 24 bc
       -0.027899431 0.04250763 -0.04001949 -0.010032637
0000c0 4f d4 78 bc de fd 75 3b 15 c4 db 3c 6c 06 26 bc
       -0.015187337 0.003753535 0.026826898 -0.010133367
0000d0 ba 5b 49 bd a0 09 b4 bc e4 75 97 bc 22 13 67 3d
       -0.049159743 -0.021977246 -0.018488832 0.05641473
0000e0 d4 76 fe 3c a8 06 46 3c c8 6a 51 bd 6a 60 01 bc
       0.031062521 0.012086548 -0.051127225 -0.007896522
0000f0 41 b5 fd 3c eb 4a 0d 3d a4 ce f8 bc c5 2a 41 3d
       0.030970218 0.034495275 -0.030371971 0.04715993
000100 31 59 0a 3c 91 ce bc bc 3b d5 e9 bb e2 28 cf bb
       0.008444116 -0.023047717 -0.0071360148 -0.0063220123
000110 65 33 6d bd cd 5e 3c bd 4a 3c 5c 3c 9d 49 5e b9
       -0.05791034 -0.045988847 0.013442108 -0.00021198993
000120 a0 02 90 3c 65 8a 18 3d c2 9f be 3b 83 d9 b1 3b
       0.017579377 0.03724136 0.0058173845 0.0054275407
000130 87 87 0a bd 78 0e 72 bc c8 82 56 bc 29 38 f4 3b
       -0.033820655 -0.014773957 -0.013092704 0.007452984
000140 1b fc 39 bd 96 22 5d 3d 85 a7 be 3b 5c 01 0c 37
       -0.045406442 0.05398806 0.0058183097 8.344967e-06
000150 e7 04 83 3a 3c 5e f7 3c 10 00 36 3d c7 a1 37 bc
       0.0009995968 0.030196302 0.044433653 -0.011208004
000160 5e 51 08 3d 45 32 fe bc 65 72 37 3c 68 75 1b bd
       0.033280723 -0.03102983 0.011196707 -0.037953764
000170 32 40 44 bd 82 34 b8 ba d2 52 ef bb d0 ea 1e 3c
       -0.047912784 -0.0014053734 -0.007303574 0.009699538
000180 a3 d7 45 3d f6 9a f5 bc 2f 7f d6 b8 61 12 25 3d
       0.04830135 -0.029981118 -0.00010228005 0.04030073
000190 e6 97 d3 bc 6d 2e 41 3b 9e e6 2e 3c 60 67 1a bd
       -0.025829267 0.0029477135 0.010675101 -0.037696242
0001a0 03 44 ff 3a 38 76 c6 3c f2 0f 37 3d 99 44 75 bc
       0.0019475225 0.024226293 0.04469294 -0.014969968
0001b0 da bb 65 bd 6f f4 b6 bc e3 b8 ce bc 16 43 13 bd
       -0.056087352 -0.022333352 -0.025234645 -0.03595265
0001c0 59 ae 26 bd 1f 5a 3b bd bd 98 06 bd e7 d0 5d 3d
       -0.040693615 -0.045740243 -0.032860506 0.054154303
0001d0 3c 93 4a 3d b4 55 9e bc 22 7e f4 bb 28 c2 2d bd
       0.04945682 -0.019327976 -0.0074613253 -0.04242149
0001e0 ab 7a 5d bc 28 8b 0e 3d 77 1e 19 3d 21 b5 e2 3c
       -0.013518016 0.03480068 0.03738257 0.02767426
0001f0 f7 30 a8 bc a1 a4 6f 3c ec c3 60 3b 65 2d 9e 3c
       -0.02053116 0.014626653 0.0034296466 0.019308755
000200 86 d2 49 3c 21 10 35 3c 33 37 d5 3c 36 98 16 3c
       0.012318259 0.011051209 0.026027298 0.009191563
000210 f7 93 83 bc 42 d6 0d bd fb 03 c5 bb be 56 a1 bc
       -0.016061766 -0.03462816 -0.0060124374 -0.019694682
000220 d3 11 15 3d db 17 aa bb c2 31 9f 3c 98 54 7c 3c
       0.03639395 -0.005190832 0.019432906 0.015401028
000230 50 ee c3 bc ee ea 04 bd d8 fb 2a bd 26 f2 4c 3c
       -0.023917347 -0.03245061 -0.041744083 0.012508905
000240 c5 ba 0c 3c 09 c2 dc bc 35 46 06 3d b6 4f 76 bc
       0.008589451 -0.026947992 0.0327818 -0.015033653
000250 0d f3 e6 bc 66 27 34 bd 24 ee dd bc 2b 47 ba 3c
       -0.028192068 -0.043982886 -0.027091093 0.022739014
000260 89 e1 0b bd 77 38 5e 3c 22 af 8e 3d a4 d2 82 3d
       -0.034150634 0.013563267 0.06966998 0.06387833
000270 e9 10 23 3d 69 c5 06 3d da 2b 20 3d 50 14 22 bd
       0.03981105 0.03290311 0.03910432 -0.039570153
000280 02 7a e7 bc b4 eb 75 bd 04 d8 a5 bb a3 03 39 bd
       -0.02825642 -0.060039237 -0.0050611515 -0.045169484
000290 b6 09 c4 3c 83 82 fe 3c 52 4f e5 bc 55 73 90 3c
       0.023930412 0.031068092 -0.027991924 0.01763312
0002a0 93 ce 8e bc 23 e5 5d 3b 34 9a 53 bd 23 7c c5 bb
       -0.017432487 0.00338585 -0.05166073 -0.006026761
0002b0 bc 72 23 bc 1c 36 31 3d ff fd ff 3c 53 87 27 bd
       -0.009976085 0.043264493 0.031249044 -0.04090054
0002c0 af 42 ab 3c 6e 3d 4f bd e1 51 3e bd b9 dc 73 bd
       0.02090582 -0.050595693 -0.046464805 -0.05953667
0002d0 0c a6 cf bc 2a 87 2f bc c2 6b 8d bc 07 65 25 3c
       -0.025347732 -0.010713378 -0.017263297 0.010094888
0002e0 94 26 3c bb fb 95 04 3d f3 f1 9e 3a 80 ab 4a 3d
       -0.0028709518 0.032369595 0.001212655 0.04947996
0002f0 2b cc 9f 3b 98 88 be bc 95 a8 2a 3c e6 0c 1d bd
       0.0048766336 -0.023258492 0.01041617 -0.03834238
000300 a8 84 c1 bc 18 77 13 3c 0e 6a 10 bd f4 68 15 bc
       -0.023622826 0.009000562 -0.03525739 -0.009119261
000310 87 43 70 bc 29 a4 43 3c b5 7e 2b bc 92 7c a0 3c
       -0.014664537 0.011940994 -0.010467221 0.01959065
000320 a1 38 76 3c d6 71 c7 bc e7 5c 4b bd 0f 26 ab bc
       0.01502815 -0.024346273 -0.049649145 -0.020892171
000330 aa 70 a8 3b 69 5c 10 bc 5f e2 98 bc b7 99 69 3c
       0.0051403837 -0.008811095 -0.01866263 0.01425784
000340 cb a2 26 3d 19 ef d9 3c b4 9a 88 3c 8f 02 a8 bc
       0.040682595 0.026603268 0.01667533 -0.020509033
000350 ba 1e b3 3c be e7 cc bb 1a 9a 1c 38 38 05 e8 bc
       0.021865238 -0.0062532118 3.7336817e-05 -0.028322801
000360 b7 50 6f 3d d1 64 a0 bc 42 c5 4d 3d f0 a7 4c bc
       0.058426585 -0.019579323 0.050236948 -0.012491211
000370 bf 1e 6c bd f5 a4 76 bd 97 c0 dd bc ae a5 57 bd
       -0.05764651 -0.06021591 -0.027069373 -0.05264824
000380 ab 58 0e bd 25 24 1d 3d d5 5e f0 3a 14 da 2f bd
       -0.03475253 0.03836455 0.0018338809 -0.042932585
000390 4b a1 93 3c 31 c4 15 bd 84 ed 34 bd fc f7 1c bd
       0.018021246 -0.036564056 -0.044171825 -0.038322434
0003a0 ff 40 82 3b e5 5c 22 3d a0 46 30 bc fe a9 11 3d
       0.0039750333 0.039639372 -0.010759026 0.035562508
0003b0 52 bf 21 3d 98 4e 19 bd 7a 1f 16 3d 8e 72 1e 3d
       0.039489098 -0.03742847 0.036651112 0.038683467
0003c0 07 95 82 bc 8f 91 55 3d 25 0b f9 bc 25 de 4e 3d
       -0.015940202 0.05214077 -0.030400822 0.050504822
0003d0 62 69 96 3c 66 49 f0 bc f6 2d bf bc 37 26 24 3d
       0.018360797 -0.029331874 -0.023337346 0.040075507
0003e0 92 05 0f bd a3 d0 9c 3c e4 a4 86 bc 46 5f fa 3c
       -0.03491742 0.019142454 -0.016436048 0.030563008
0003f0 82 2b f6 3c 77 96 2c 3d 22 77 91 3d bd 9c 3e bd
       0.030050043 0.042135682 0.07102801 -0.046536196

conv3.bias f4 [150]
000000 e1 9e d6 bb b2 a3 81 bc a2 a6 b1 bd 9f 5c da bc
       -0.0065497016 -0.015825126 -0.08674361 -0.026655493
000010 f3 3d cf ba ea a8 d1 3d cd 7d 58 bd ef 51 95 bd
       -0.0015811309 0.10237296 -0.052854348 -0.07291018
000020 81 2b 30 3d e2 ac 55 bd e8 09 23 bc 2d 0f 96 bd
       0.04301024 -0.052166827 -0.009951092 -0.07327113
000030 ef 3b 85 3e 42 17 e2 bc 2f 50 8e 3d 3d 6e 03 3d
       0.26022288 -0.02759898 0.069488876 0.032087553
000040 66 1e 7a bb 48 9a 47 3d c8 29 87 bd 2f 5b 7e 3d
       -0.0038165092 0.04873112 -0.06599766 0.06209868
000050 84 51 f4 3d 75 90 19 3c 75 5d 03 be 11 8e 96 3c
       0.1192961 0.00937282 -0.1282862 0.01837829
000060 db cf 27 bc be 76 d6 bc 2d 59 25 3c bd 32 52 bd
       -0.010242428 -0.026179668 0.010092062 -0.05131792
000070 f8 2d 15 bd 85 28 fb bb d4 0d 82 bb 15 08 2f bb
       -0.036420792 -0.0076647424 -0.0039689336 -0.0026707698
000080 92 09 fa ba 53 d2 ce 3d b0 f3 21 3e 26 98 e4 3d
       -0.0019076339 0.1009871 0.15815616 0.111618325
000090 6f dc d5 bc 81 c9 a9 bc 15 ac 02 3e 9b bb 99 3d
       -0.026106087 -0.020725967 0.12760957 0.07506486
0000a0 52 0a ea 3c 1d c8 1d 3d 41 fe 63 be 20 d3 bf bc
       0.028569374 0.03852092 -0.22264959 -0.023416102
0000b0 38 e5 c6 3d 74 3d 69 3e 07 3d fc 3c b1 89 97 3d
       0.09711689 0.22777349 0.030790819 0.073993094
0000c0 ac 37 1a 3e b8 3c 0d bc 9d 41 3e bd d8 45 9a 3e
       0.150603 -0.0086204335 -0.046449292 0.30131412
0000d0 5d 3f 81 3e 44 03 c3 3d 8d 09 a9 bd 9c 18 f5 bc
       0.25243655 0.09522107 -0.08253775 -0.029918961
0000e0 cd f9 20 bd 03 4c 04 3c 78 99 d5 bc e9 03 58 3d
       -0.03930073 0.008074763 -0.026074156 0.052738104
0000f0 6a d7 45 bd 58 48 74 bc 0f 79 19 3d d8 90 77 bc
       -0.048301138 -0.014909826 0.037468966 -0.015110217
000100 c4 78 41 bc 48 3c 9c 3e 8d 63 e0 3e dc f6 93 3e
       -0.011808578 0.3051474 0.4382595 0.28899276
000110 d6 4e 88 be 77 17 c8 bb 62 07 68 3e 4b 3b 2f bc
       -0.26622647 -0.006106313 0.22659066 -0.010695289
000120 c3 42 28 be 9e ec 05 bc 70 53 96 3d 83 9b c4 3d
       -0.16431718 -0.00817409 0.07340133 0.09599974
000130 ca e1 8c 3d a4 91 05 be 47 73 8a bc 65 0b 8f 3e
       0.06879003 -0.13043839 -0.016900672 0.2793838
000140 f5 4f 11 3c a2 22 be bc dc 63 f8 bd ca db a9 3c
       0.008869161 -0.023209874 -0.12128422 0.020734686
000150 8e 19 9e 3c 05 16 9a bd cb ec d8 bc e0 a9 75 bd
       0.019299295 -0.07523731 -0.0264801 -0.05997646
000160 23 bf ef bc a7 47 19 3e a1 b3 6d bd 76 98 b2 bd
       -0.029265946 0.1496874 -0.058032636 -0.08720486
000170 de f1 bf bc 2b 2a 44 bd 98 18 99 3d d5 ea 89 bd
       -0.023430761 -0.047891777 0.07475394 -0.06734244
000180 e9 d3 e4 bc 8c 56 94 3e f6 9e cf bd 81 64 62 3d
       -0.027933078 0.2897228 -0.10137741 0.05527163
000190 1c b0 82 3e 30 4b e6 3c 7b 30 57 3e 06 67 00 be
       0.25524986 0.028112024 0.21014588 -0.125393
0001a0 0b 78 9a 3d 3d c4 3a be 11 93 c4 3d f6 7c 63 bd
       0.07542428 -0.18238921 0.09598363 -0.055539094
0001b0 7a 93 be bc e3 0a 73 bc d7 7a 85 3d 65 90 0c 3e
       -0.023263682 -0.014834139 0.065175705 0.13726957
0001c0 47 ca 5c 3d 69 79 4e bd 21 ed 0c bd da a6 d7 bc
       0.053903844 -0.050408754 -0.03440583 -0.026324678
0001d0 07 19 34 3e 65 72 50 bd 7f 6a 3e bb 11 05 0b bd
       0.17587672 -0.050890345 -0.0029055176 -0.03394038
0001e0 07 90 8c bc 7e bf 42 3e 47 b3 9f bd 99 53 16 3e
       -0.017158521 0.19018361 -0.07797866 0.14680327
0001f0 fb cc 87 3d 40 73 22 3d 5a d8 88 3d 77 8d ca 3a
       0.06630894 0.039660692 0.06681891 0.0015453537
000200 48 83 e1 bd c6 74 a0 3c da ea c8 bd e3 2b be bd
       -0.11011368 0.019586932 -0.098104194 -0.092857145
000210 79 a7 5c be 52 1a 95 bc c3 1a 2a bd 16 de 57 bd
       -0.21548261 -0.018201027 -0.04152943 -0.052702032
000220 06 14 72 3d ea b9 83 3e 5b 6c a2 3d 40 ad 66 bd
       0.059101127 0.2572778 0.079308234 -0.056317568
000230 05 f9 99 3d 5f 63 09 be 36 0e 7c bd 27 28 33 bd
       0.075182 -0.13416813 -0.06153699 -0.043739464
000240 4f 20 c0 bd 7a 6d 75 3e c4 ae cd 3d e0 74 df bd
       -0.093811624 0.23967543 0.100430995 -0.10910964
000250 df a2 0e 3e 69 60 00 3e
       0.13929318 0.12536778

fc1.weight f4 [10, 9600]
000000 89 dd bc 3c 6a a5 cc 3c ab 17 35 3c 5a a5 f2 bb
       0.023054855 0.02498122 0.011053006 -0.0074049653
000010 54 fc 1c 3c 80 98 c4 3c 53 91 0d 3c d5 02 a9 ba
       0.009581644 0.023998499 0.008640605 -0.0012894521
000020 0e c7 25 bb e9 1b 9d bb 5f 7b da bc f5 a1 2d bd
       -0.0025295648 -0.004794587 -0.026670156 -0.042390782
000030 a4 e6 aa bc ad 37 8a 3b 87 9d 34 3c 46 a9 88 3c
       -0.020861931 0.004218063 0.011023886 0.016682278
000040 6b 53 11 39 ef 8b 15 bc 6d 29 ac bc 93 bb c9 3b
       0.00013859353 -0.009127601 -0.021015847 0.006156394
000050 17 61 62 3c 60 8e c6 3c a1 1e 23 3c ab f0 a1 3c
       0.013817093 0.024237812 0.009956033 0.01976808
000060 1b 89 a7 bb 6a ba 46 3c 61 5f 68 3c e2 40 03 3c
       -0.00511278 0.0121294055 0.014182896 0.008011075
000070 51 9d 11 3c c9 8c 20 bb dc 75 e3 3b db 0a 29 bb
       0.008887605 -0.0024497977 0.00694154 -0.0025793824
000080 7f 40 95 3c 28 79 08 3d 2e b3 15 3d 23 3d db 3c
       0.01821923 0.03331867 0.036547832 0.02676255
000090 e1 c4 85 3c 47 5b ba bb d2 32 b3 b8 ce 0d 86 bc
       0.01632923 -0.0056871506 -8.544851e-05 -0.016364004
0000a0 19 ab 96 3c cb 5e 14 3c be 92 f4 3a 39 54 a2 bc
       0.018392133 0.0090558035 0.0018659455 -0.019815551
0000b0 a8 34 8a bc 7a 61 2a bb 18 12 6d 3c c2 63 dc 3b
       -0.016870812 -0.0025998042 0.014469646 0.0067257592
0000c0 f0 cc ba 3b fd 0f 88 39 75 16 60 bc dc 6f 95 bc
       0.0057007 0.00025951854 -0.013677229 -0.018241815
0000d0 69 96 42 bb f6 b4 00 bc 6b a7 87 bc b2 74 f7 bb
       -0.0029691702 -0.007855644 -0.016559323 -0.007551753
0000e0 87 9a 22 bd d6 64 98 bc 88 2f 0d bc 95 89 83 3b
       -0.03969815 -0.01860277 -0.008617289 0.004014204
0000f0 57 11 1d 3c e7 9c d1 bb 5b 39 89 3b 2b 95 39 bc
       0.009586654 -0.006396878 0.0041877455 -0.011327068
000100 7f 4c 2e 3a f7 90 8c bb 6f 45 0b bc 13 98 e2 bb
       0.0006648972 -0.004289742 -0.008500441 -0.0069151013
000110 89 26 78 bc e1 cf c8 bb 58 8e 23 bb fc 0f 9e 3c
       -0.015145906 -0.0061282967 -0.002495667 0.019294731
000120 31 23 07 3d 0a e0 b3 3b 39 66 a4 3c 2d 20 b9 3c
       0.032992546 0.005489354 0.020068275 0.02259835
000130 3d a8 35 bc bb ba 79 3b 48 9d aa 3c 4a 87 10 3d
       -0.011087474 0.0038105685 0.02082695 0.03528527
000140 ed 4d a3 3c 74 97 58 3c ae 58 74 3c a4 d6 4e 3c
       0.019934619 0.013219703 0.014913721 0.0126244165
000150 3b 97 63 ba 2f 25 73 bc 34 b1 52 bb 75 f8 bc 3c
       -0.0008681898 -0.014840408 -0.0032149078 0.023067692
000160 53 ed 00 3c 47 08 9f bb 74 9e 1e bd 51 54 25 bc
       0.0078690825 -0.0048532817 -0.03872533 -0.010090903
000170 1d c5 16 bd 05 83 3e bd b4 b8 06 bd d8 22 59 3c
       -0.036809076 -0.04651167 -0.03289099 0.013252936
000180 ed 31 2a 3c d3 69 7f 3b da 0f 85 bd 3c 9f 8c bc
       0.01038788 0.0038972988 -0.06497164 -0.017165773
000190 9e 08 ec bc eb a2 60 bd 57 d4 e4 bc a2 63 c0 bc
       -0.028812703 -0.05484287 -0.027933283 -0.023485009
0001a0 75 70 22 3b 6a b2 2a 3c e9 89 88 bc 8a 4e d5 bb
       0.0024786268 0.010418514 -0.016667323 -0.0065096067
0001b0 dc ce 96 bb de d3 76 bc 89 27 61 bc 8a f5 2f bc
       -0.0046022963 -0.0150651615 -0.013742336 -0.010739693
0001c0 b6 ee 19 bc 40 7f 1b bb a0 86 06 3c 55 11 a1 bb
       -0.009395292 -0.002372697 0.008210808 -0.004915396
0001d0 ec 57 15 3c e0 0e 02 3c 99 e3 a3 3b ed 06 1d bc
       0.0091152005 0.007938117 0.005001497 -0.009584171
0001e0 c3 71 76 3b de 29 96 bc be 6a 65 bc 3e 6c 59 3c
       0.0037604428 -0.01833051 -0.0140025 0.013270436
0001f0 34 ba 35 3c a9 ab ce 3b f6 45 4c bb b9 db 1e 3c
       0.011091758 0.0063070846 -0.003116963 0.009695941
000200 f4 81 e0 3c 59 80 8d 3c 72 ec 0c 3b 78 b4 f9 bc
       0.027405716 0.017273115 0.0021503237 -0.030481562
000210 54 1e 3d bc 82 4c 47 bc 82 b0 d2 3c a3 06 42 3b
       -0.011542875 -0.012164237 0.025718931 0.0029606007
000220 fb 10 83 3c 5b 12 ba 3c ae fb 8b bb 2e 26 f4 bb
       0.015999308 0.02271383 -0.004271946 -0.0074508404
000230 75 b1 c3 bb cc 21 38 3c 68 c6 ff 3c d7 b6 87 3c
       -0.0059720823 0.011238527 0.031222537 0.016566677
000240 19 8d 8f 3c bf 44 07 3d a2 ff ed 3b 73 3f 5a 3b
       0.017523335 0.033024546 0.00726314 0.003330198
000250 0c e3 bd 3c e4 e9 f4 3c cd ba 89 3d f8 ae 8f 3c
       0.023179553 0.029896684 0.067250825 0.017539486
000260 3e 61 9e 3c 98 b4 03 bc df b1 91 bc 7c 94 67 bc
       0.019333478 -0.008038662 -0.01778501 -0.0141345225
000270 03 b2 a5 b9 37 06 52 3d 5b 2f c2 3d 1d 05 61 3c
       -0.00031603882 0.05127546 0.094816886 0.013734129
000280 d4 d2 23 3c 14 d7 af ba c3 14 19 bd 4d 1d ed bb
       0.009998996 -0.0013415539 -0.037373316 -0.007236159
000290 90 4c 77 3b d6 70 80 3d 5e 69 77 3c ca 90 7c 3b
       0.0037734844 0.06271522 0.015100805 0.003853845
0002a0 c5 b3 15 bc ba fc 8d ba 4a a1 32 bd c2 e3 54 bd
       -0.009137099 -0.0010832765 -0.04361085 -0.05197502
0002b0 9b 1d a7 bb b6 27 37 3c 95 9c 09 bd 85 f8 65 bc
       -0.005099965 0.011178901 -0.033596594 -0.014036302
0002c0 03 52 3e bc 11 0e ad 3c 9c 31 13 bc 9c 82 e4 bb
       -0.011616233 0.021124871 -0.008983996 -0.0069735777
0002d0 09 7a b5 3c 36 50 e7 3b ae ca 13 bd 2a 27 74 3c
       0.022152917 0.0070591224 -0.036081962 0.014901916
0002e0 26 18 5c 3c 94 a0 9c 3c 95 2b ae 3c e4 16 07 3d
       0.013433492 0.019119538 0.021261016 0.032980815
0002f0 72 4d d7 3c 02 fb b2 3c e3 bd c7 bb 0f b4 8d 3b
       0.026282046 0.021848205 -0.0060956343 0.004324443
000300 26 2e 43 bc e5 d8 35 3a 52 fb 05 bc 5c d6 96 3b
       -0.011912858 0.0006936922 -0.008177595 0.0046031903
000310 6d 05 67 bc 93 69 a0 bc ca b9 82 bb ad f7 27 3b
       -0.014100415 -0.019581592 -0.003989433 0.0025629804
000320 3b d2 59 3c 1b c8 74 3c 9a 1c a5 3b b1 7d 5c 3c
       0.013294752 0.014940287 0.00503881 0.013457702
000330 8a 88 1b bb 3d 66 90 3b 4f 53 39 3c 4f 08 5f 3c
       -0.0023732507 0.004406719 0.011311366 0.013612821
000340 89 92 91 3b 07 7c 26 3c c6 46 99 bb 9d 83 4e bb
       0.004442517 0.010161406 -0.0046776263 -0.0031511553
000350 01 50 06 bc 5c 61 b8 3b 59 89 22 bb a1 8a f5 3b
       -0.008197785 0.0056268405 -0.0024801104 0.0074933325
000360 6d 88 40 3b 0d dd 5f 3c e5 a4 47 bb 05 73 9c bc
       0.002937819 0.013663542 -0.0030463275 -0.019097814
000370 02 b6 c6 3b b5 76 27 bc f4 31 04 3c 33 97 3d 3c
       0.0060641775 -0.010221173 0.00806855 0.011571693
000380 e4 78 20 3b f1 5d 0f bc 47 c0 2b bb 65 cb 3e bc
       0.002448612 -0.008750425 -0.0026207136 -0.011645173
000390 8d 1d 8b bb a7 26 40 bc 6b 36 6e ba c8 e7 c6 b9
       -0.004245466 -0.011727965 -0.00090870884 -0.00037938193
0003a0 e0 26 e0 3b 75 66 7e bb ad 0a 60 bc 2d 2f a6 bb
       0.0068405718 -0.0038818393 -0.01367442 -0.0050715418
0003b0 ac ca ca ba 67 02 a5 3b 5d 85 60 bc 12 19 c4 39
       -0.0015471778 0.005035687 -0.013703671 0.00037402712
0003c0 a3 a1 84 3c 3b f0 b8 3a 4f 30 69 3b 57 13 5c 3b
       0.016190356 0.001410968 0.0035581773 0.0033580863
0003d0 c0 7d ab bb 84 5f 91 3c 07 b9 2c 3c b3 98 87 3b
       -0.0052334964 0.01774574 0.010542161 0.004138076
0003e0 47 5f 97 3c c9 0d 5b 3c c0 cd 10 3c f1 db a7 3c
       0.018478049 0.013369986 0.008838117 0.020490618
0003f0 ef 51 85 3c 01 2f 65 bb 39 64 38 bc a7 c6 9e bb
       0.01627442 -0.0034970643 -0.011254364 -0.0048454585

fc1.bias f4 [10]
000000 af 0c 41 bd cd 9d 5d be 82 ef d4 bc 0c 6e 1d bb
       -0.047131237 -0.21642227 -0.025993112 -0.0024021892
000010 9f 58 60 3e d8 ae 46 bd 4e 25 8e 3e 30 46 b5 bb
       0.21908806 -0.048506588 0.27762836 -0.0055320486
000020 bc 0c 7d 3d 95 9a 61 be
       0.061779723 -0.22031625
