logs/best_epoch_4.ckpt (torch, 676783 bytes, 8 tensors)

conv1.weight f4 [10, 3, 3, 3]
-0.028469512 0.10532928 0.11362916 0.04148324 -0.15266721 -0.04470161 -0.048354413 -0.13350955
0.007843495 -0.02534167 -0.081226505 -0.12841563 -0.19088611 0.066750795 0.036635514 -0.17533849
-0.014703579 -0.017273711 -0.090231925 -0.10270741 -0.008982775 0.029344482 -0.10337102 0.17318508
0.10644975 0.16544151 -0.04024344 0.0038277972 -0.039903875 -0.06345443 -0.3165151 -0.32871574
-0.1248472 -0.36926815 -0.23229311 -0.34562892 0.038651276 -0.055880427 -0.25184894 0.010681852
-0.1635198 0.009066631 0.070582375 -0.18616907 -0.023656016 0.26799065 0.35395733 0.31458178
0.076465346 0.2790739 0.27574763 0.2447222 0.26683447 0.22693525 0.21465896 0.5529455
0.2645569 -0.0328652 -0.06336784 0.29344374 -0.2535703 -0.33418226 -0.02084724 0.14624394
0.087940186 0.20380434 -0.30413353 -0.035960462 0.055510107 -0.5006773 -0.16273886 -0.13460691
0.48034874 0.7148265 0.5444429 0.45155776 0.38494313 0.5444629 -0.019591874 0.20657785
0.08382751 0.6584878 0.6143359 0.6287213 0.4846924 0.6863747 0.60133773 0.1436988
0.086613454 0.43810177 -0.02626307 -0.07626816 -0.099780105 -0.28931433 -0.21910745 -0.16347073
-0.39587638 -0.5577903 -0.33679572 -0.15033285 -0.06769045 0.06786824 -0.1734403 -0.23070182
-0.2778016 -0.20400621 -0.10863349 -0.26210454 0.58216846 0.4773694 0.11963122 0.93288004
0.46349293 0.0007194803 0.6101531 0.43022957 -0.23172827 -0.2708385 -0.6685836 -0.8475854
0.10420994 -0.34650642 -0.70448184 -0.062934995 -0.5387826 -0.72891545 0.48589143 -0.34397423
-0.33941406 0.604702 -0.09177569 -0.64662474 0.3388071 0.13142756 -0.49542567 0.51406866
0.66389084 0.6174548 -0.49915826 -0.293052 -0.47470397 -0.44999206 -0.57463986 -0.5434043
0.46734464 0.784396 0.530525 -0.074645236 -0.23228428 -0.26831108 -0.41738713 -0.94830483
-0.72815436 0.7010205 0.93757963 0.4378932 0.06179807 -0.2773424 -0.10743005 -0.18322758
-0.49016908 -0.5220249 -0.23679784 0.21491317 -0.13887624 -0.24066187 -0.15441652 0.19849616
-0.58452284 -0.20236489 0.43333766 0.15115859 0.5212696 0.2873256 -0.32330057 0.2655391
0.5678046 -0.1723852 0.21902773 0.5952425 -0.20420314 -0.07701583 -0.29634234 -0.23042573
-0.1371266 -0.09445478 -0.543451 -0.118321665 0.22874418 0.06707981 -0.177292 -0.17002203
0.070794776 -0.1709014 -0.2695288 -0.035259463 -0.019835124 -0.0677453 -0.042663775 0.040809873
-0.1519406 0.075973265 -0.14901836 0.13489778 -0.2106058 0.074808575 -0.18446009 -0.11676524
0.042729583 0.011094114 0.06414169 0.16634986 0.23656599 0.12626526 0.1899911 0.21870467
0.19638425 0.49101144 0.42157912 0.2824607 0.24608155 0.60818595 -0.04246809 0.17884943
0.48779836 0.124476366 0.104587525 0.52645373 0.24711213 0.3229984 0.46365014 -0.090323426
0.23659572 0.6853032 -0.76461345 -0.8357408 -0.3737241 -0.84557015 -0.6812727 -0.5881335
-0.7180061 -0.85515845 -0.51372397 -0.30774638 -0.020410558 0.46868768 -0.5020338 -0.064960405
0.59788203 -0.46208993 -0.07374275 0.51269853 -0.53873587 -0.3655665 0.35898155 -0.55453336
00000000: e538 e9bc e1b6 d73d 68b6 e83d 54ea 293d
00000010: cb54 1cbe 0919 37bd 470f 46bd bab6 08be
00000020: 0182 003c 5599 cfbc 155a a6bd 637f 03be
00000030: a677 43be a4b4 883d 1f0f 163d ef8b 33be
00000040: 48e7 70bc 9981 8dbc 84cb b8bd 4358 d2bd
00000050: 7d2c 13bc d763 f03c 2fb4 d3bd 6e57 313e
00000060: 5402 da3d 8069 293e 4ed6 24bd c8db 7a3b
00000070: 3f72 23bd 65f4 81bd 440e a2be 6e4d a8be
00000080: e4af ffbd b710 bdbe 3fde 6dbe 46f6 b0be
00000090: cd50 1e3d e0e2 64bd 58f2 80be ef02 2f3c
000000a0: bc71 27be 358c 143c 7e8d 903d 1ba3 3ebe
000000b0: 43ca c1bc 1236 893e e539 b53e dd10 a13e
000000c0: dd99 9c3d c6e2 8e3e cb2e 8d3e 7598 7a3e
000000d0: 879e 883e b761 683e 8fcf 5b3e d68d 0d3f
000000e0: 0174 873e a99d 06bd 00c7 81bd 423e 963e
000000f0: f7d3 81be f019 abbe d5c7 aabc f9c0 153e
00000100: fc19 b43d 16b2 503e 64b7 9bbe 474b 13bd
00000110: 915e 633d 632c 00bf 04a5 26be 65d6 09be
00000120: 45f0 f53e dffe 363f 9c60 0b3f 9432 e73e
00000130: 4417 c53e ec61 0b3f 237f a0bc 2589 533e
00000140: c2ad ab3d a892 283f 1e45 1d3f e1f3 203f
00000150: 9a29 f83e 41b6 2f3f 45f1 193f c725 133e
00000160: 6562 b13d e04e e03e a625 d7bc 7b32 9cbd
00000170: 8359 ccbd 0221 94be b45d 60be df64 27be
00000180: 4fb0 cabe 58cb 0ebf 7d70 acbe dbf0 19be
00000190: 4aa1 8abd 81fe 8a3d 569a 31be 193d 6cbe
000001a0: 033c 8ebe 01e7 50be 3c7b debd 9132 86be
000001b0: fe08 153f c369 f43e 3701 f53d 3ad1 6e3f
000001c0: f24e ed3e 819b 3c3a fe32 1c3f 0d47 dc3e
000001d0: 2d4a 6dbe 58ab 8abe 4b28 2bbf 5bfb 58bf
000001e0: 056c d53d 4a69 b1be ec58 34bf 10e4 80bd
000001f0: a8ed 09bf 349a 3abf c3c6 f83e 641d b0be
00000200: aec7 adbe c0cd 1a3f e5f4 bbbd 3389 25bf
00000210: 2078 ad3e f294 063e 6fa8 fdbe 019a 033f
00000220: c0f4 293f 8511 1e3f ac91 ffbe e90a 96be
00000230: 660c f3be 5c65 e6be 991b 13bf 8b1c 0bbf
00000240: cc47 ef3e 2dce 483f 7dd0 073f 9adf 98bd
00000250: eedb 6dbe 1260 89be c4b3 d5be 1bc4 72bf
00000260: 5368 3abf 1476 333f 3805 703f 8a33 e03e
00000270: f91f 7d3d d3ff 8dbe 4904 dcbd 03a0 3bbe
00000280: 71f7 fabe 6da3 05bf 227b 72be 3312 5c3e
00000290: 9335 0ebe 1170 76be 5d1f 1ebe 9442 4b3e
000002a0: 4aa3 15bf be38 4fbe 6fde dd3e 51c9 1a3e
000002b0: ed71 053f 571c 933e a787 a5be bef4 873e
000002c0: a45b 113f bf85 30be ce48 603e d061 183f
000002d0: a11a 51be 7aba 9dbd 2fba 97be b9f4 6bbe
000002e0: ea6a 0cbe 8271 c1bd 9b1f 0bbf a152 f2bd
000002f0: ea3b 6a3e 2461 893d 098c 35be 411a 2ebe
00000300: dafc 903d c700 2fbe aeff 89be 3a6c 10bd
00000310: 457d a2bc 0cbe 8abd 36c0 2ebd 4128 273d
00000320: 5196 1bbe df97 9b3d 4598 18be a522 0a3e
00000330: 0ca9 57be 3d35 993d 1be3 3cbe 9d22 efbd
00000340: 3705 2f3d 16c4 353c b85c 833d 9e57 2a3e
00000350: 5b3e 723e ae4b 013e 078d 423e 1ef4 5f3e
00000360: f418 493e da65 fb3e 38d9 d73e b09e 903e
00000370: cdfc 7b3e 13b2 1b3f 05f3 2dbd 4e24 373e
00000380: b5c0 f93e 77ed fe3d fc31 d63d acc5 063f
00000390: f60a 7d3e 0c60 a53e 8d63 ed3e 7dfb b8bd
000003a0: 2646 723e 0870 2f3f b5bd 43bf 1cf3 55bf
000003b0: c458 bfbe 4977 58bf e367 2ebf eb8f 16bf
000003c0: 3fcf 37bf aaeb 5abf 6a83 03bf ef90 9dbe
000003d0: 0b34 a7bc d5f7 ef3e 4a85 00bf f609 85bd
000003e0: cc0e 193f 0d97 ecbe 7006 97bd 3640 033f
000003f0: 98ea 09bf 882b bbbe 6ecc b73e e6f5 0dbf

conv1.bias f4 [10]
-0.08383073 -0.17190334 -1.0904201 -0.18354689 0.46473283 0.6384007 0.07563222 -0.35613695
0.31680226 0.18232344
00000000: 72af abbd 6e07 30be e392 8bbf b7f3 3bbe
00000010: 76f1 ed3e 3a6e 233f 11e5 9a3d 9557 b6be
00000020: e833 a23e ffb2 3a3e

conv2.weight f4 [50, 10, 3, 3]
-0.060944367 0.047722775 0.073519774 -0.09151932 0.10176373 0.034901224 -0.02265997 0.022471191
-0.086516194 0.10398813 -0.087506704 0.09639258 -0.020113114 0.09210299 0.007809645 0.00060535513
0.08401007 0.105926834 -0.09985562 -0.052301053 -0.168604 0.14285162 0.08597734 0.02647452
0.044076625 0.11632683 0.04730131 0.1864416 0.13175888 0.08682889 0.029616313 0.008202712
-0.12878042 -0.1529794 -0.020388795 0.025054602 0.2888224 0.23917682 0.052791387 -0.015267778
-0.05414306 -0.11256049 -0.17295438 -0.15481883 -0.049968407 0.03455199 0.1292868 -0.08109515
-0.062731296 -0.07387606 0.1114159 -0.008130079 0.060184702 0.014845138 0.04839195 -0.011082021
0.095822245 0.050792348 -0.035147272 0.02478852 -0.0276083 -0.11304117 0.006952138 -0.03696412
0.00596467 0.076514706 -0.03757319 -0.088295065 0.103306286 -0.067329176 -0.0066682533 -0.08130268
0.15812749 0.19902308 0.06365639 -0.15589404 0.011396161 -0.026763119 -0.26674983 -0.21133626
-0.15745881 -0.029033786 0.022833804 0.0587879 0.12652417 0.062587105 -0.011025242 0.0027719922
0.020586314 -0.11608237 -0.101195 0.019561391 0.090873405 -0.039142217 0.10189914 0.03383276
-0.016560828 -0.021825971 0.08205392 -0.078769274 -0.10401411 0.095937125 0.075820476 0.04970592
0.02030329 -0.03778233 -0.060838763 -0.004733401 0.18212602 -0.19215676 0.017014647 0.15146026
0.1850767 -0.1915518 -0.29755196 0.14090304 -0.10085893 -0.07661157 -0.2372776 -0.14265941
0.23549356 0.10748884 -0.029623246 -0.013000421 0.045196343 0.07192874 -0.05267069 0.09062652
-0.12395608 -0.16374695 0.012657515 0.15481594 0.2965053 -0.15198714 0.028169848 -0.07719291
-0.15961832 0.21667862 0.37576357 -0.22752808 -0.19272694 0.04617029 0.39514628 -0.10113045
0.13612272 -0.11115758 -0.026779804 0.098811574 0.15435204 -0.025610993 -0.061887693 0.16060749
0.09488974 0.08402171 -0.033914592 0.01106673 0.022135327 -0.020890348 0.03489285 -0.06815096
-0.06930024 0.048925683 -0.051286772 0.0030678064 0.034709226 0.22294989 0.17143974 -0.051731024
-0.2758434 0.059988692 -0.06814246 -0.08940513 -0.19675826 0.12375782 0.20130044 -0.09241818
-0.051439058 -0.008238464 0.25514197 -0.06513472 0.09046245 0.033224296 0.04786515 -0.08075877
0.028231395 0.03005224 -0.006630345 -0.07407666 0.04505928 -0.048444528 -0.0077116913 -0.11220856
-0.09991891 -0.041161537 0.04197893 -0.108934894 -0.10636922 -0.111791946 -0.024811655 0.12756522
0.07226113 -0.09120532 -0.080294445 -0.118695505 -0.03664009 0.04853961 0.00092855986 -0.042372636
0.06796423 0.06851811 0.00260656 -0.09419913 0.05052881 0.09243622 0.027074005 0.09813336
-0.03683915 -0.11105677 -0.057389393 0.039346177 -0.046775367 0.0012117957 -0.13064733 -0.117537566
-0.037883982 0.058170237 0.24798144 0.1876598 -0.19344456 -0.0797482 0.058296982 0.121946156
-0.033285078 -0.08539597 -0.06755737 0.036121964 0.06823893 -0.064913355 -0.025512518 -0.046215523
-0.032701097 -0.037746664 -0.06346381 -0.009863638 0.028240109 0.011300538 -0.011108664 -0.004118664
0.044672593 0.033324827 0.07298076 0.07106546 -0.027235623 0.11307928 -0.006835787 0.04394304
00000000: cda0 79bd f578 433d 8991 963d 7b6e bbbd
00000010: 8169 d03d 96f4 0e3d 67a1 b9bc 8115 b83c
00000020: 672f b1bd bbf7 d43d b736 b3bd 7969 c53d
00000030: 42c4 a4bc 7ea0 bc3d 0de8 ff3b b2b0 1e3a
00000040: 790d ac3d 2bf0 d83d 1a81 ccbd a139 56bd
00000050: 87a6 2cbe b247 123e e314 b03d 18e1 d83c
00000060: b189 343d c33c ee3d 05bf 413d 8cea 3e3e
00000070: cdeb 063e 58d3 b13d e99d f23c ab64 063c
00000080: 04df 03be a2a6 1cbe 6706 a7bc 4f3f cd3c
00000090: 88e0 933e c5ea 743e c83b 583d b425 7abc
000000a0: 1dc5 5dbd 1d86 e6bd f41a 31be d488 1ebe
000000b0: acab 4cbd 6386 0d3d c263 043e 3715 a6bd
000000c0: 4479 80bd 554c 97bd 052e e43d 0634 05bc
000000d0: 3c84 763d 0639 733c a336 463d 5d91 35bc
000000e0: 743e c43d a30b 503d 96f6 0fbd 4b11 cb3c
000000f0: cd2a e2bc 2182 e7bd c3ce e33b b067 17bd
00000100: 4773 c33b beb3 9c3d 58e6 19bd 0bd4 b4bd
00000110: 3f92 d33d e1e3 89bd 5d81 dabb 0582 a6bd
00000120: 2cec 213e b5cc 4b3e 485e 823d b0a2 1fbe
00000130: f7b6 3a3c 543e dbbc 6f93 88be 8868 58be
00000140: e23c 21be 43d8 edbc f50d bb3c 95cb 703d
00000150: 8d8f 013e ab2d 803d 37a3 34bc 50aa 353b
00000160: a1a4 a83c 98bc edbd 533f cfbd 363f a03c
00000170: d61b ba3d 9753 20bd 7fb0 d03d 3894 0a3d
00000180: 93aa 87bc 61cc b2bc e30b a83d c951 a1bd
00000190: 5a05 d5bd af7a c43d c447 9b3d 6f98 4b3d
000001a0: 1653 a63c a5c1 1abd 1132 79bd a51a 9bbb
000001b0: 3e7f 3a3e bec4 44be 4d62 8b3c 6618 1b3e
000001c0: bf84 3d3e 2826 44be bb58 98be e348 103e
000001d0: 208f cebd 87e6 9cbd e6f8 72be 4f15 12be
000001e0: 3925 713e 1c23 dc3d 73ac f2bc b8ff 54bc
000001f0: cd1f 393d 604f 933d 39bd 57bd 669a b93d
00000200: afdc fdbd 48ad 27be 7761 4f3c 1288 1e3e
00000210: 8bcf 973e 84a2 1bbe 74c4 e63c 5117 9ebd
00000220: fc72 23be 00e1 5d3e 1564 c03e 1ffd 68be
00000230: 365a 45be 0f1d 3d3d 9d50 ca3e 7b1d cfbd
00000240: c163 0b3e 96a6 e3bd 5261 dbbc b95d ca3d
00000250: 760e 1e3e 25ce d1bc f37d 7dbd 4a76 243e
00000260: 8d55 c23d 9313 ac3d 07ea 0abd 3b51 353c
00000270: 2555 b53c 3c22 abbc ceeb 0e3d bb92 8bbd
00000280: 49ed 8dbd 4c66 483d 1412 52bd 400d 493b
00000290: 432b 0e3d fa4c 643e e68d 2f3e e9e3 53bd
000002a0: 593b 8dbe b4b6 753d 468e 8bbd 091a b7bd
000002b0: ff7a 49be bd74 fd3d b421 4e3e be45 bdbd
000002c0: c3b1 52bd 9ffa 06bc f8a1 823e 5a65 85bd
000002d0: 6144 b93d 3316 083d 3f0e 443d db64 a5bd
000002e0: 8745 e73c 1d30 f63c 5d43 d9bb 81b5 97bd
000002f0: 1490 383d c56d 46bd 5bb2 fcbb 9acd e5bd
00000300: 49a2 ccbd 0099 28bd 19f2 2b3d 4219 dfbd
00000310: 1bd8 d9bd 2df3 e4bd d041 cbbc 75a0 023e
00000320: a5fd 933d dbc9 babd 6a71 a4bd a116 f3bd
00000330: eb13 16bd 78d1 463d 996a 733a ee8e 2dbd
00000340: d530 8b3d 3953 8c3d d2d2 2a3b 79eb c0bd
00000350: 4cf7 4e3d 334f bd3d 4eca dd3c 25fa c83d
00000360: a6e4 16bd bb71 e3bd 2411 6bbd 7529 213d
00000370: 8797 3fbd 1ed5 9e3a 6ac8 05be 89b7 f0bd
00000380: 3c2c 1bbd ea43 6e3d d9ee 7d3e e429 403e
00000390: 5516 46be 0653 a3bd d1c8 6e3d e8be f93d
000003a0: ef55 08bd 15e4 aebd 855b 8abd a0f4 133d
000003b0: dac0 8b3d 4bf1 84bd a1ff d0bc 7d4c 3dbd
000003c0: 96f1 05bd 3f9c 1abd 50f9 81bd 199b 21bc
000003d0: cd57 e73c e425 393c 1d01 36bc dcf5 86bb
000003e0: 9cfa 363d 9d7f 083d f076 953d c58a 913d
000003f0: 3e1d dfbc 1c96 e73d bdfe dfbb 9efd 333d

conv2.bias f4 [50]
-0.22842751 -0.5201285 -0.06813524 -0.101279825 0.20575263 -0.26406497 0.037903685 -0.24458414
-0.13588013 -0.2031644 -0.1844986 -0.26770324 0.2863619 0.18245545 0.06928304 -0.08938983
-0.23752518 0.21042962 -0.078398265 -0.27868697 0.07978199 0.13651852 -0.19557753 -0.27105346
-0.054206874 -0.08134169 0.24803327 -0.2670832 -0.16299748 -0.22311193 -0.037673783 -0.1854698
0.2124786 0.22830841 -0.24672504 -0.4366682 -0.04216152 -0.10565359 -0.2514386 -0.03553143
0.068091 -0.13914843 -0.009557427 -0.127264 -0.02323677 0.22327922 0.48784754 0.19323781
0.04520487 0.098320976
00000000: e7e8 69be 2427 05bf 7d8a 8bbd cc6b cfbd
00000010: d1b0 523e 8633 87be e540 1b3d 4474 7abe
00000020: 2924 0bbe 540a 50be 33ed 3cbe 6610 89be
00000030: 079e 923e 9ad5 3a3e 44e4 8d3d 0412 b7bd
00000040: cd39 73be dd7a 573e 458f a0bd 0fb0 8ebe
00000050: bd64 a33d 83cb 0b3e 7a45 48be 85c7 8abe
00000060: 0708 5ebd 7996 a6bd 6ffc 7d3e 21bf 88be
00000070: d0e8 26be 7477 64be d34f 1abd cceb 3dbe
00000080: fd93 593e aec9 693e 7da5 7cbe f992 dfbe
00000090: 8fb1 2cbd e960 d8bd 8fbc 80be 6889 11bd
000000a0: 4b73 8b3d ed7c 0ebe c196 1cbc 7e51 02be
000000b0: 0a5b bebc 4fa3 643e 27c7 f93e 22e0 453e
000000c0: be28 393d 825c c93d

conv3.weight f4 [150, 50, 3, 3]
0.0008704777 -0.03414644 -0.019540582 0.019937126 -0.003384022 -0.0072794133 0.0067474144 0.0025207966
0.009756701 0.013607399 -0.0144760255 -0.04484334 -0.04985623 -0.035087537 0.027986929 0.034473523
-0.0038518298 -0.013212442 0.014248214 0.046208423 0.011837236 0.018531568 0.014266022 -0.05665742
-0.025632165 0.0016071133 0.037402414 -0.018949471 0.020091878 0.02937867 0.06557873 0.010846692
0.041450307 -0.01097647 0.030879864 0.00019121198 -0.033440128 -0.07025237 -0.0827722 0.053172335
0.014457595 0.011393491 -0.021093946 -0.041427843 -0.031948354 0.04490312 -0.040895127 -0.00905012
-0.011417549 0.0033320312 0.014904053 -0.00783576 -0.05360619 -0.026991256 -0.010760131 0.065244325
0.032650735 0.0017989916 -0.059404526 -0.02628475 0.025968408 0.03613942 -0.043370444 0.04176079
-0.0012597323 -0.03445135 -0.0035116922 -0.00792207 -0.06363925 -0.044770293 0.0034536663 -0.010672217
0.011999596 0.03523689 0.0012356952 0.0032167411 -0.035233412 -0.018614301 -0.01553267 0.0055135004
-0.04911507 0.057769455 0.0062280637 0.0013507456 -0.00027696465 0.029838184 0.04458226 -0.00839597
0.035306323 -0.03308032 0.008059329 -0.033466138 -0.04958171 -0.0064247344 -0.008990679 0.007879616
0.043586448 -0.029826207 -0.003996421 0.042220976 -0.028565448 -0.0029797952 0.00658872 -0.038021866
0.0028811016 0.017647382 0.04061139 -0.015139753 -0.053910393 -0.01996853 -0.02021786 -0.04027778
-0.03577361 -0.038483463 -0.037050653 0.057576664 0.058587927 -0.022769557 -0.0066909874 -0.04009653
-0.013683033 0.039833993 0.045999434 0.026040267 -0.020297756 0.017352445 0.005722991 0.016671572
0.007480678 0.012361058 0.026493732 0.011125138 -0.0130433105 -0.033845082 -0.009515705 -0.019571487
0.03663308 -0.005285586 0.019579614 0.015822293 -0.023690553 -0.030885512 -0.041293193 0.012689942
0.00568706 -0.02908587 0.021261232 -0.018679053 -0.04144154 -0.06681577 -0.027825069 0.023696555
-0.04666763 0.017835364 0.07891681 0.07078491 0.038991228 0.0289841 0.021346442 -0.0463106
-0.024833836 -0.072839886 -0.0021868758 -0.043814644 0.022959014 0.029882425 -0.034379866 0.002428428
-0.021529624 -0.00044108715 -0.06365681 0.004198674 -0.0071659028 0.05157019 0.039411996 -0.045869946
0.004062116 -0.043194152 -0.04780302 -0.06710765 -0.031619158 -0.012726227 -0.015725024 -0.0031859465
-0.012684498 0.037835676 -0.010076639 0.049175043 0.010403431 -0.02618823 0.009748451 -0.03550361
-0.031036576 0.0045219734 -0.03360011 -0.012735009 -0.014982837 0.0126312105 -0.010415261 0.021259869
0.017054107 -0.023246646 -0.053975984 -0.02280895 0.0009742601 -0.01360097 -0.022637032 0.009716259
0.042877074 0.02925179 -0.00019324044 -0.030797368 0.017784305 -0.010663448 -0.0001035102 -0.025853325
0.0730373 -0.01447066 0.05985526 -0.013084596 -0.06469658 -0.060901243 -0.02892836 -0.058429766
-0.043625038 0.035346963 0.0029895352 -0.042767387 0.013945658 -0.034241933 -0.045018353 -0.041294526
0.005252561 0.040073797 -0.009351938 0.037890833 0.040617064 -0.03946086 0.035170633 0.038984846
-0.018769473 0.055249304 -0.026676372 0.058932174 0.022791391 -0.027311917 -0.020211205 0.042384077
-0.03662789 0.024774231 -0.010871867 0.031566698 0.043915037 0.049577508 0.08916858 -0.047484845
00000000: c530 643a 23dd 0bbd 9213 a0bc 2f53 a33c
00000010: 78c6 5dbb 2588 eebb 6a19 dd3b f333 253b
00000020: 92da 1f3c 91f1 5e3c da2c 6dbc a6ad 37bd
00000030: 0c36 4cbd f3b7 0fbd d844 e53c 1c34 0d3d
00000040: fb6e 7cbb 0079 58bc 5771 693c 0b45 3d3d
00000050: f7f0 413c 84cf 973c 08bc 693c 9c11 68bd
00000060: 8cfa d1bc c6a5 d23a 4633 193d ec3b 9bbc
00000070: b997 a43c 89ab f03c 244e 863d 53b6 313c
00000080: ccc7 293d a7d6 33bc c5f7 fc3c 1380 4839
00000090: 84f8 08bd 79e0 8fbd 7984 a9bd 3ccb 593d
000000a0: 8cdf 6c3c c4ab 3a3c 36cd acbc 3eb0 29bd
000000b0: 47dc 02bd 55ec 373d a681 27bd f446 14bc
000000c0: ac10 3bbc 355e 5a3b 2130 743c 8f61 00bc
000000d0: 2a92 5bbd c41c ddbc 434b 30bc d19e 853d
000000e0: c7bc 053d 24cc eb3a 2952 73bd 1e53 d7bc
000000f0: b3bb d43c ee06 143d 35a5 31bd 5d0d 2b3d
00000100: 9a1d a5ba dc1c 0dbd 6b24 66bb 92cb 01bc
00000110: 4c55 82bd 0e61 37bd e856 623b 86da 2ebc
00000120: f499 443c 8f54 103d 0df7 a13a f6cf 523b
00000130: e950 10bd 057d 98bc bd7c 7ebc 98aa b43b
00000140: e22c 49bd aa9f 6c3d c914 cc3b 800b b13a
00000150: 9135 91b9 356f f43c e39b 363d 408f 09bc
00000160: 5d9d 103d 3b7f 07bd 470b 043c ca13 09bd
00000170: 3116 4bbd 9486 d2bb a44d 13bc 8119 013c
00000180: b487 323d 1756 f4bc 69f4 82bb e7ef 2c3d
00000190: 1602 eabc ab48 43bb 30e6 d73b d1bc 1bbd
000001a0: ddd0 3c3b 3e91 903c 2158 263d ba0c 78bc
000001b0: 25d1 5cbd 0b95 a3bc ed9f a5bc 50fa 24bd
000001c0: 5987 12bd d6a0 1dbd 6dc2 17bd 82d5 6b3d
000001d0: e5f9 6f3d 3987 babc 1240 dbbb 423c 24bd
000001e0: cd2e 60bc f828 233d e769 3c3d 6652 d53c
000001f0: 7b47 a6bc b726 8e3c ee87 bb3b d292 883c
00000200: 7a20 f53b 0986 4a3c 6209 d93c 3646 363c
00000210: 9cb3 55bc 24a1 0abd c2e7 1bbc 6254 a0bc
00000220: 920c 163d b632 adbb 6d65 a03c c19d 813c
00000230: b112 c2bc 9d03 fdbc 0d23 29bd 79e9 4f3c
00000240: 845a ba3b 7e45 eebc 092c ae3c d004 99bc
00000250: 9bbe 29bd b5d6 88bd 66f1 e3bc 471f c23c
00000260: 8f26 3fbd 781b 923c 239f a13d aef7 903d
00000270: 44b5 1f3d 1070 ed3c bcde ae3c 2fb0 3dbd
00000280: 5470 cbbc 142d 95bd b051 0fbb fc76 33bd
00000290: 8b14 bc3c fdcb f43c e7d1 0cbd 4326 1f3b
000002a0: e55e b0bc b741 e7b9 805e 82bd 0895 893b
000002b0: f3cf eabb 433b 533d 796e 213d 20e2 3bbd
000002c0: 801b 853b 5aec 30bd 19cd 43bd bc6f 89bd
000002d0: 1783 01bd aa81 50bc c4d1 80bc 50cb 50bb
000002e0: a4d2 4fbc 95f9 1a3d 7d18 25bc c56b 493d
000002f0: 2773 2a3c b388 d6bc f8b7 1f3c 3c6c 11bd
00000300: 6b40 febc 102d 943b 45a0 09bd 80a6 50bc
00000310: 937a 75bc 23f3 4e3c c5a4 2abc 2d29 ae3c
00000320: 0eb5 8b3c c06f bebc ec15 5dbd d6d9 babc
00000330: 7d65 7f3a 9ad6 5ebc 4c71 b9bc f230 1f3c
00000340: df9f 2f3d 73a1 ef3c 96a0 4ab9 c34a fcbc
00000350: 64b0 913c beb5 2ebc 9e13 d9b8 5aca d3bc
00000360: 9494 953d 5916 6dbc ca2a 753d c660 56bc
00000370: a47f 84bd 9573 79bd 2bfb ecbc 0d54 6fbd
00000380: 2bb0 32bd fac7 103d 14ec 433b db2c 2fbd
00000390: 547c 643c 4541 0cbd 2a65 38bd 7324 29bd
000003a0: ad1d ac3b 6c24 243d df38 19bc 6b33 1b3d
000003b0: 145e 263d b6a1 21bd 150f 103d 93ae 1f3d
000003c0: 70c2 99bc 184d 623d 6888 dabc dd62 713d
000003d0: 03b5 ba3c 3ebd dfbc f891 a5bc ed9a 2d3d
000003e0: 2007 16bd 54f3 ca3c ea1f 32bc 154c 013d
000003f0: 41e0 333d c911 4b3d 049e b63d 787f 42bd

conv3.bias f4 [150]
0.001781134 -0.0012323454 -0.09543642 -0.025544772 0.0023519732 0.14300694 -0.055409193 -0.06722339
0.0466706 -0.023095088 -0.016981417 -0.06974367 0.303466 -0.02468739 0.08292158 0.045462273
-0.017544823 0.060814314 -0.049368463 0.06661607 0.13670315 0.020896448 -0.1516446 0.017331485
0.0028498033 -0.021733694 0.019329017 -0.053005833 -0.04196498 -0.0054857573 -0.01745583 0.022816854
0.009969743 0.11035807 0.18517731 0.13790442 -0.019840937 -0.026537979 0.15874831 0.09758118
0.0724293 0.03099442 -0.22972699 -0.0026220372 0.10557185 0.2530457 0.030215433 0.08503437
0.17620888 -0.01136844 -0.05371435 0.34376982 0.26826784 0.10439446 -0.09776983 -0.022258371
-0.03695863 0.0044505596 -0.018050905 0.060780976 -0.038035568 -0.009490163 0.039501924 -0.01776096
-0.008040306 0.35045826 0.477541 0.33920965 -0.31127128 -0.01675147 0.25413638 -0.011681643
-0.19889554 0.0026562905 0.082110904 0.10466227 0.0821917 -0.13920258 -0.010653045 0.3030549
-0.015714476 -0.010165925 -0.122076035 0.030663857 0.026990078 -0.06304274 -0.029629668 -0.06382937
-0.02404539 0.15914595 -0.061651867 -0.073229074 -0.019168483 -0.046356346 0.0829087 -0.063779905
-0.03403143 0.32876468 -0.11106327 0.06503971 0.28995508 0.032146294 0.20380004 -0.14521454
0.10219736 -0.19331522 0.12459591 -0.06450364 -0.009693955 -0.01343412 0.07062772 0.14034767
0.08015438 -0.063049406 -0.0366079 -0.016663212 0.20041041 -0.05743793 -0.0066537512 -0.04133914
-0.011367068 0.24528185 -0.0894719 0.15568627 0.089249276 0.06266233 0.07826076 -0.005515777
-0.12069074 0.021912634 -0.114086255 -0.10840109 -0.20642021 -0.014383823 -0.043480914 -0.044971254
0.059838627 0.31646508 0.095285535 -0.06540978 0.082538 -0.14249125 -0.0575248 -0.0317407
-0.09900759 0.25532824 0.12080856 -0.11611914 0.16736834 0.13821287
00000000: f174 e93a a686 a1ba 2b74 c3bd 4543 d1bc
00000010: 9023 1a3b 6970 123e c0f4 62bd 6bac 89bd
00000020: ac29 3f3d e931 bdbc 9d1c 8bbc c5d5 8ebd
00000030: e55f 9b3e 363d cabc cad2 a93d a636 3a3d
00000040: 29ba 8fbc 6e18 793d 9636 4abd 026e 883d
00000050: e9fb 0b3e 072f ab3c b948 1bbe c2fa 8d3c
00000060: c4c3 3a3b dc0a b2bc e357 9e3c a51c 59bd
00000070: 79e3 2bbd dec1 b3bb 87ff 8ebc 69ea ba3c
00000080: 2258 233c 6903 e23d 1f9f 3d3e d136 0d3e
00000090: 7689 a2bc 2d66 d9bc eb8e 223e a4d8 c73d
000000a0: d055 943d 03e8 fd3c 8d3d 6bbe 7cd6 2bbb
000000b0: 0e36 d83d 358f 813e 5b86 f73c 8026 ae3d
000000c0: 1a70 343e b242 3abc 9403 5cbd 9902 b03e
000000d0: 675a 893e c3cc d53d 8c3b c8bd 3057 b6bc
000000e0: ef61 17bd 00d6 913b 7edf 93bc 79f5 783d
000000f0: 2fcb 1bbd a17c 1bbc c5cc 213d 6f7f 91bc
00000100: 7dbb 03bc 446f b33e 4180 f43e e3ac ad3e
00000110: f35e 9fbe 613a 89bc 2a1e 823e 5d64 3fbc
00000120: 46ab 4bbe 2915 2e3b c329 a83d 2c59 d63d
00000130: 1f54 a83d 1f8b 0ebe 1c8a 2ebc 032a 9b3e
00000140: a5bb 80bc fb8e 26bc 0003 fabd c532 fb3c
00000150: 4c1a dd3c 8d1c 81bd ebb9 f2bc f9b8 82bd
00000160: d6fa c4bc 28f7 223e ab86 7cbd 20f9 95bd
00000170: 3907 9dbc 27e0 3dbd 09cc a93d 0a9f 82bd
00000180: 8a64 0bbd d853 a83e 2475 e3bd 8a33 853d
00000190: fe74 943e d5ab 033d f5b0 503e 1fb3 14be
000001a0: d94c d13d 6df4 45be 242c ff3d 7c1a 84bd
000001b0: 65d3 1ebc c91a 5cbc 44a5 903d 4db7 0f3e
000001c0: fb27 a43d 0c20 81bd 2af2 15bd 4a81 88bc
000001d0: 6338 4d3e 0944 6bbd b607 dabb 3b53 29bd
000001e0: f03c 3abc 2a2b 7b3e 0b3d b7bd 396c 1f3e
000001f0: 53c8 b63d 1c55 803d 2d47 a03d b1bd b4bb
00000200: b52c f7bd 2082 b33c 0ea6 e9bd 6401 debd
00000210: d25f 53be 20aa 6bbc 0b19 32bd c733 38bd
00000220: 5919 753d b607 a23e 1025 c33d 90f5 85bd
00000230: af09 a93d 3ae9 11be 209f 6bbd 8902 02bd
00000240: 7ec4 cabd 62ba 823e 7a6a f73d dfcf edbd
00000250: 9b62 2b3e ad87 0d3e

fc1.weight f4 [10, 9600]
0.023101754 0.029041773 0.019793527 -0.0023062534 0.015960013 0.02665255 0.005537789 -0.0049481504
-0.00093198876 0.0069925236 -0.022959454 -0.05332945 -0.029904906 -0.0030762237 0.0082237115 0.01492412
0.006197861 -0.0042964816 -0.02768513 0.009256734 0.018952642 0.024885975 0.014624427 0.019947942
-0.011295881 0.012176624 0.014161107 0.013751178 0.007154435 -0.010341227 0.005867754 -0.0028002996
0.014591947 0.039171346 0.038481064 0.03732403 0.01583682 -0.010793779 -0.0023633603 -0.019888513
0.02662099 0.010765147 0.014820519 -0.023325503 -0.02265675 -0.009945171 0.014556929 0.007026361
0.005218225 0.01362422 -0.02897235 -0.03287063 -0.008406312 -0.012213812 -0.022825483 -0.0060939724
-0.049975365 -0.03162794 -0.012245966 0.0074506407 0.0166379 0.004957697 0.010358891 -0.007516348
0.009960101 -0.0011381238 -0.013506296 -0.0133946845 -0.025555234 -0.011925751 -0.008069842 0.023141123
0.039780196 0.0036700685 0.015118851 0.02737127 -0.0136185195 0.00412643 0.024870094 0.044575825
0.02734016 0.0063091815 0.023474604 0.030840151 0.0011692566 -0.019070143 0.00046520695 0.03287716
0.009200871 -0.0062261196 -0.044192363 -0.0039990805 -0.03254578 -0.04916731 -0.038087986 0.019072011
0.0107769845 -0.0012728247 -0.07895876 -0.019941136 -0.02414571 -0.046778 -0.023336891 -0.024887253
0.0014347627 0.0031596087 -0.03327317 -0.0061415783 -0.018064063 -0.013976683 -0.009885987 -0.005909788
-0.012773693 -0.007561056 0.007858947 -0.0041776258 0.0060803974 0.013476655 0.01132302 -0.0052192286
0.0018740137 -0.024562528 -0.016724264 0.017461687 0.01778052 0.008627073 -0.006997695 0.0053950343
0.026923846 0.008685949 -0.000377058 -0.030999213 -0.015108805 -0.02209979 0.03021186 0.0013014429
0.012442952 0.013392816 -0.0045212614 -0.006595078 -0.0163532 0.0048648105 0.034223195 0.01899816
0.009463766 0.021402096 -0.007502156 0.0009027027 0.020405466 0.031440057 0.07150562 0.012306561
0.012591973 -0.027010074 -0.030346163 -0.010837956 -0.011533068 0.04716273 0.09411642 0.008667197
0.0090038795 -0.00224108 -0.045541525 -0.0046202927 0.016371507 0.07031836 0.013669191 -0.0027440714
-0.008953265 0.00787782 -0.0590285 -0.07380639 0.0020421955 0.01684473 -0.03946572 -0.018170713
-0.006562268 0.022261059 -0.01877885 -0.019656997 0.01791667 0.0091443835 -0.04906928 0.015524715
0.02736084 0.0291161 0.026293559 0.03679088 0.031805456 0.024321213 -0.018789677 0.0007872158
-0.013014256 0.0010590148 -0.012167211 0.0013275667 -0.018850472 -0.025377857 -0.010050809 -1.3651728e-05
0.010134071 0.01342485 -0.0007065122 0.017657368 -0.001185623 0.001937761 0.0037326412 0.013370292
0.011811213 0.011364506 -0.00960278 -0.009431981 -0.010052144 0.004631934 -0.009433539 0.007902738
-0.0050998437 0.009923684 -0.0034124358 -0.017904157 0.0081838975 -0.013875798 -0.0036226735 0.016134322
-0.002237164 -0.019952826 -0.013173586 -0.017937502 0.007597351 -0.0069987746 -0.00091368 -0.0014508133
0.00061188615 -0.014661223 -0.017453007 -0.0074552502 0.000881702 0.010508525 -0.010655069 9.513369e-05
0.013403049 -0.001349636 0.0076616453 0.0042559803 -0.01248744 0.021544838 0.017414736 0.004702264
0.01879508 0.010950655 0.010696215 0.016753068 0.019302798 -0.009740915 -0.022632789 -0.006714535
00000000: e43f bd3c 03e9 ed3c 0926 a23c 8324 17bb
00000010: 93be 823c 7356 da3c 5776 b53b 1824 a2bb
00000020: b550 74ba 8a21 e53b 7715 bcbc fb6f 5abd
00000030: 22fb f4bc 789a 49bb bfbc 063c 4c84 743c
00000040: 6d17 cb3b 80c9 8cbb edcb e2bc 8ea9 173c
00000050: 9242 9b3c acdd cb3c 4b9b 6f3c de69 a33c
00000060: 5c12 39bc 7680 473c fd03 683c 9f4c 613c
00000070: c06f ea3b 406e 29bc 4a46 c03b 3b85 37bb
00000080: 1013 6f3c 2272 203d 529e 1d3d 15e1 183d
00000090: 38bc 813c 64d8 30bc 9be2 1abb 3ced a2bc
000000a0: 4314 da3c 4d60 303c c3d1 723c 2015 bfbc
000000b0: a69a b9bc 12f1 22bc 2f80 6e3c 633d e63b
000000c0: a5fd aa3b 1f38 5f3c 6c57 edbc 5ba3 06bd
000000d0: a1ba 09bc 711c 48bc 82fc babc f2af c7bb
000000e0: f8b2 4cbd 4c8c 01bd 4ea3 48bc 8124 f43b
000000f0: 354c 883c 2d74 a23b 57b8 293c b24b f6bb
00000100: b12f 233c 192d 95ba 8349 5dbc 6175 5bbc
00000110: 3659 d1bc 3a64 43bc 5f37 04bc 7492 bd3c
00000120: 8ff0 223d 8885 703b 0fb5 773c b739 e03c
00000130: 3620 5fbc 0137 873b 5ebc cb3c 2495 363d
00000140: 79f8 df3c 40bd ce3b d04d c03c 7ca4 fc3c
00000150: be41 993a fd38 9cbc 05e7 f339 33aa 063d
00000160: 40bf 163c 7a04 ccbb 0d03 35bd b80a 83bb
00000170: b94e 05bd a963 49bd 2602 1cbd e83c 9c3c
00000180: f391 303c e9d4 a6ba 21b5 a1bd 985b a3bc
00000190: 39cd c5bc 4a9a 3fbd 022d bfbc 5ae0 cbbc
000001a0: a60e bc3a 7011 4f3b 7349 08bd 4b3f c9bb
000001b0: 16fb 93bc 75fe 64bc d6f8 21bc e5a6 c1bb
000001c0: c048 51bc bcc2 f7bb d0c2 003c 77e4 88bb
000001d0: 123e c73b 30cd 5c3c 3084 393c 1006 abbb
000001e0: 77a1 f53a 5b37 c9bc 5301 89bc d00b 8f3c
000001f0: 74a8 913c 9158 0d3c ec4c e5bb d4c8 b03b
00000200: 668f dc3c 834f 0e3c deaf c5b9 10f2 fdbc
00000210: ec8a 77bc 9e0a b5bc dd7e f73c 2d95 aa3a
00000220: 86dd 4b3c 8b6d 5b3c 1727 94bb 861b d8bb
00000230: 25f7 85bc fd68 9f3b 9f2d 0c3d 07a2 9b3c
00000240: e90d 1b3c 7353 af3c a5d4 f5bb 5aa3 6c3a
00000250: 5d29 a73c 4ac7 003d 8a71 923d 75a1 493c
00000260: 904e 4e3c 3b44 ddbc 8498 f8bc af91 31bc
00000270: 31f5 3cbc b52d 413d 1cc0 c03d dc00 0e3c
00000280: 0285 133c 15df 12bb c089 3abd d365 97bb
00000290: 8a1d 863c 1303 903d bef4 5f3c e1d5 33bb
000002a0: b7b0 12bc f911 013c dec7 71bd ce27 97bd
000002b0: 5bd6 053b f6fd 893c cfa6 21bd bfda 94bc
000002c0: 4b08 d7bb d35c b63c 1ad6 99bc b607 a1bc
000002d0: fbc5 923c 53d2 153c dffc 48bd 605b 7e3c
000002e0: d723 e03c e384 ee3c 9765 d73c 09b2 163d
000002f0: 7046 023d 483d c73c cfec 99bc 285d 4e3a
00000300: bf39 55bc a4ce 8a3a fb58 47bc bf01 ae3a
00000310: 4e6c 9abc 39e5 cfbc 26ac 24bc ba09 65b7
00000320: 6009 263c e7f3 5b3c 3b35 39ba 2fa6 903c
00000330: e866 9bba 78fc fd3a 549f 743b 120f 5b3c
00000340: d183 413c 3132 3a3c fb54 1dbc 9888 1abc
00000350: bfb1 24bc 7bc7 973b 218f 1abc 7c7a 013c
00000360: 971c a7bb f396 223c 2ca3 5fbb bdab 92bc
00000370: c115 063c 5157 63bc 606a 6dbb 202c 843c
00000380: 629d 12bb 1c74 a3bc 06d6 57bc abf1 92bc
00000390: 33f3 f83b fa55 e5bb 0784 6fba 3729 beba
000003a0: fc66 203a a035 70bc 9cf9 8ebc 2c4b f4bb
000003b0: 0522 673a f32b 2c3c 9992 2ebc 8382 c738
000003c0: 7698 5b3c 45e6 b0ba 8a0e fb3b c075 8b3b
000003d0: 1f98 4cbc cd7e b03c 59a9 8e3c 7315 9a3b
000003e0: 24f8 993c 606a 333c 2d3f 2f3c bb3d 893c
000003f0: e720 9e3c 5c98 1fbc 6668 b9bc 9a05 dcbb

fc1.bias f4 [10]
-0.07821331 -0.24104199 -0.049684413 0.009522462 0.2701291 -0.058196377 0.34245586 -0.025631292
0.044252694 -0.22139953
00000000: 4d2e a0bd b6d3 76be e281 4bbd 1a04 1c3c
00000010: 5d4e 8a3e 535f 6ebd 6056 af3e b7f8 d1bc
00000020: 5042 353d 8fb6 62be
